develop/output_improved/checkpoints/improved_affi_best.pt (torch, 895922 bytes, 84 tensors)

input_proj.weight f4 [64, 1]
0.770225 0.8420241 -0.2586915 0.9333141 -0.20534408 0.20012528 -0.47823453 0.57669616
0.89189124 -0.73163706 0.8655818 0.18433689 0.75423354 0.14703119 0.4908342 -0.13892739
0.79882926 0.15322483 -0.4717204 0.2331326 -0.44493315 -0.11917505 -0.39711872 0.67246085
-0.7739632 -0.44639358 -0.29487133 -0.58725137 0.10569211 -0.9690863 0.893394 -0.83709615
0.7933507 0.15167329 -0.32339033 0.62563854 0.16275658 0.81501573 0.10853524 -0.33228022
0.28249928 -0.25885007 0.42121583 0.89856535 0.57190657 -0.44735414 0.5730863 0.16080089
0.50708175 -0.58764005 -0.9963403 -0.36226973 -0.79059917 0.821805 0.2810159 0.42910337
0.3382007 -0.0068596653 0.7779994 -0.7029647 0.06900664 -0.7062831 0.31720334 -0.36828268
00000000: 772d 453f e48e 573f 3673 84be aced 6e3f
00000010: b845 52be a4ed 4c3e 28db f4be 5ca2 133f
00000020: fc52 643f 914c 3bbf c596 5d3f cfc2 3c3e
00000030: 7315 413f 588f 163e 9f4e fb3e fb42 0ebe
00000040: 1380 4c3f f8e6 1c3e 5685 f1be 50ba 6e3e
00000050: 47ce e3be 0c12 f4bd 2553 cbbe 6526 2c3f
00000060: 7422 46bf b38d e4be 60f9 96be 1b56 16bf
00000070: 1b75 d83d 0a16 78bf 78b5 643f ef4b 56bf
00000080: 0819 4b3f 3e50 1b3e 6b93 a5be d929 203f
00000090: a9a9 263e dfa4 503f b947 de3d a220 aabe
000000a0: bfa3 903e ff87 84be 9aa9 d73e 6108 663f
000000b0: 7868 123f 9a0b e5be c9b5 123f fda8 243e
000000c0: 1cd0 013f 946f 16bf 2810 7fbf 6b7b b9be
000000d0: b564 4abf d061 523f 51e1 8f3e 70b3 db3e
000000e0: a428 ad3e 0bc7 e0bb f82a 473f 7ff5 33bf
000000f0: 5a53 8d3d f8ce 34bf 7a68 a23e 8c8f bcbe

input_proj.bias f4 [64]
0.30815893 -0.18582384 0.8215573 -0.58891946 -0.5976498 -0.5950609 0.89939195 0.3354528
0.96990865 -0.823783 -0.9863816 -0.7759561 -0.6779347 0.42344463 0.36075312 0.83311635
-0.51827955 -0.67978835 0.528905 -0.41280612 0.59903187 -0.23628907 0.5710104 -0.772085
-0.50102615 0.298965 0.20580472 -0.25907987 0.57846105 0.66860825 -0.7116449 -0.53504735
0.9292462 -0.3027254 -0.34898144 -0.9674671 -0.5702151 0.24556051 -0.12856337 -0.7402705
0.043546095 -0.6741609 -0.82692534 -0.5346318 -0.8686882 -0.64922225 0.9988779 0.16764417
0.31416738 -0.92745376 -0.6584612 -0.32765755 0.14785208 -0.86508274 -0.42433402 -0.5871309
0.0013669558 -0.36759824 -0.068232134 -0.68383574 -0.6867314 -0.59293866 -0.35301113 -0.7904496
00000000: 02c7 9d3e 9b48 3ebe 9451 523f 6dc3 16bf
00000010: 94ff 18bf e955 18bf 8d3e 663f 78c0 ab3e
00000020: ef4b 783f 71e3 52bf 8183 7cbf 0fa5 46bf
00000030: 218d 2dbf bccd d83e a2b4 b83e 1d47 553f
00000040: f8ad 04bf 9c06 2ebf 5166 073f 535b d3be
00000050: 275a 193f c3f5 71be bd2d 123f 5da7 45bf
00000060: 4043 00bf f111 993e 79be 523e 1ea6 84be
00000070: 0616 143f e929 2b3f 5c2e 36bf ddf8 08bf
00000080: 14e3 6d3f d3fe 9abe b2ad b2be edab 77bf
00000090: 9ef9 11bf 3774 7b3e 1ea6 03be 5e82 3dbf
000000a0: 645d 323d cf95 2cbf 61b1 53bf a1dd 08bf
000000b0: 5a62 5ebf 6e33 26bf 76b6 7f3f eaaa 2b3e
000000c0: 8cda a03e 9c6d 6dbf ea90 28bf bbc2 a7be
000000d0: 8966 173e 1076 5dbf 4f42 d9be 364e 16bf
000000e0: 6d2b b33a d635 bcbe 4abd 8bbd dc0f 2fbf
000000f0: a1cd 2fbf d4ca 17bf e0bd b4be e85a 4abf

temporal_blocks.0.conv1.weight f4 [64, 64, 3]
0.037751257 -0.014884116 0.07150625 -0.009394276 -0.063175604 0.06045721 -0.014207058 -0.025404433
-0.0610536 -0.09163633 0.016894134 -0.010000936 0.031264186 -0.060909066 0.04976976 -0.05901641
-0.014759817 0.016395407 0.046220295 0.060891025 0.0633083 -0.0748706 0.018240867 -0.02230559
-0.017691437 -0.052996326 0.07275622 -0.043491393 0.037504483 0.018440608 0.010408925 -0.042001218
0.06943142 0.011020988 0.0070492565 -0.062853076 0.01465685 -0.014093724 -0.028465273 0.059062228
0.017802501 -0.03621085 -0.050510675 -0.002895682 0.04850639 -0.014631844 -0.03904067 -0.024983019
-0.07329789 0.02209058 0.061510086 -0.072610706 0.01449543 0.037871607 0.0261259 -0.022804469
0.033722714 0.02833328 0.024337268 -0.009911552 -0.0076177246 0.010566634 -0.016098598 -0.01663101
0.04458421 0.057087697 0.0038464726 -0.013385057 -0.002133421 -0.017126607 0.014454009 0.024054019
-0.049618773 -0.026961653 0.052160986 0.047152076 -7.2943476e-05 -0.049289055 -0.026057556 -0.061043356
-0.028626394 0.046041943 0.04643487 0.02404525 -0.06459232 -0.041571382 -0.008959713 0.0885383
0.0140650505 -0.024168951 0.012905603 -0.030889433 -0.041688427 0.06878612 -0.033074886 -0.023000693
-0.08082877 0.049412996 0.06147871 0.01787704 -0.052914955 -0.06908238 -0.048918802 0.052727837
0.027589759 0.050594613 0.035177838 0.021235667 -0.005994634 -0.057093266 -0.0607974 -0.0938905
0.028397411 -0.025800234 -0.026739512 -0.04429467 -0.009507253 -0.04650872 -0.048752356 0.01941823
-0.058864135 0.04199856 -0.012733189 -0.049231507 -0.014267948 -0.03901006 -0.030496957 -0.07123229
0.04263543 -0.07074006 0.032440044 0.03861111 0.0412252 -0.058002036 0.054926723 -0.026912697
0.02545884 0.061744094 -0.01610262 0.00085280463 -0.01129165 -0.07059549 0.03555873 -0.06434109
0.028170034 0.054213542 0.07688624 -0.010350302 -0.060625877 0.010510123 0.055416778 -0.07219981
-0.024879685 -0.031123552 -0.0070373532 -0.04316421 0.0044216434 -0.021057293 -0.07939112 0.04546692
0.057462674 -0.0072501684 -0.018619878 -0.032130897 -0.062111683 -0.081256345 0.024103155 -0.036358222
-0.086444765 -0.007996469 -0.01313137 -0.024483362 0.000310762 -0.016557265 -0.06327585 -0.03599722
-0.047719993 0.07156285 -0.029755544 0.011710451 -0.027792476 0.0037798644 0.06695096 0.04570658
-0.0632595 0.020783104 0.05512601 0.015841354 0.052173804 0.0755276 -0.012665345 0.010407686
-0.04889546 0.020657487 0.047298983 0.032754406 -0.027878325 -0.06755791 -0.03890375 -0.06870611
-0.053889554 -0.026913337 0.05647747 0.0066063344 -0.06526383 -0.078570135 0.039624177 -0.06410037
-0.011227983 0.032685436 -0.023124607 -0.008616269 -0.0032219584 -0.012826338 0.0010286539 -0.06957298
-0.048032917 -0.0045116567 0.06326887 -0.04536535 -0.082044214 0.02384297 0.0098939575 0.041612122
0.051285412 0.029868554 -0.075459026 0.0051383334 0.03393438 -0.0025998997 -0.046458878 0.07852956
-0.0066445773 -0.04465099 -0.058194898 0.041309588 0.025608914 0.026295464 0.019974705 -0.054137662
-0.076674685 0.008606838 0.060419008 0.031288538 -0.04613222 -0.010557272 -0.043226775 -0.037012946
0.016685352 0.029075472 0.06065284 -0.06940205 0.05832345 -0.053681068 0.030302238 0.051494222
00000000: 10a1 1a3d 82dc 73bc de71 923d 73ea 19bc
00000010: 3662 81bd fba1 773d b8c4 68bc f51c d0bc
00000020: 5713 7abd d4ab bbbd 9165 8a3c f7da 23bc
00000030: e00e 003d c97b 79bd 60db 4b3d 31bb 71bd
00000040: 29d3 71bc a94f 863c 7e51 3d3d de68 793d
00000050: c8a7 813d c255 99bd df6d 953c 36ba b6bc
00000060: a2ed 90bc ad12 59bd 3701 953d 0824 32bd
00000070: 4d9e 193d c210 973c 328a 2a3c 7809 2cbd
00000080: 0f32 8e3d 6091 343c 73fd e63b 1db9 80bd
00000090: 4923 703c 5de9 66bc 0130 e9bc 3ceb 713d
000000a0: 8dd6 913c d451 14bd 48e4 4ebd 7bc5 3dbb
000000b0: a3ae 463d 67ba 6fbc 1ce9 1fbd 30a9 ccbc
000000c0: 341d 96bd 4ef7 b43c 00f2 7b3d ecb4 94bd
000000d0: 3d7e 6d3c 421f 1b3d fc05 d63c 70d0 babc
000000e0: d420 0a3d 321b e83c f35e c73c 1064 22bc
000000f0: 1b9e f9bb ad1f 2d3c 35e1 83bc c23d 88bc
00000100: ef9d 363d cad4 693d 1a15 7c3b 004d 5bbc
00000110: ddd0 0bbb 194d 8cbc 82d0 6c3c ef0c c53c
00000120: 0e3d 4bbd afde dcbc c2a6 553d 8922 413d
00000130: 3bf9 98b8 52e3 49bd a876 d5bc 9908 7abd
00000140: e681 eabc 7a96 3c3d 7e32 3e3d 8bfa c43c
00000150: fa48 84bd c146 2abd c3cb 12bc 9153 b53d
00000160: 1971 663c f7fd c5bc 0672 533c d60b fdbc
00000170: 7cc1 2abd bddf 8c3d 8879 07bd f36b bcbc
00000180: 8e89 a5bd 4865 4a3d 1ad1 7b3d df72 923c
00000190: 5abd 58bd 107b 8dbd 155f 48bd 25f9 573d
000001a0: eb03 e23c 4c3c 4f3d a316 103d 6cf6 ad3c
000001b0: a26e c4bb a1da 69bd b206 79bd aa49 c0bd
000001c0: b0a1 e83c 035b d3bc d20c dbbc 546e 35bd
000001d0: 4fc4 1bbc ed7f 3ebd 8db0 47bd fb12 9f3c
000001e0: 851b 71bd af06 2c3d de9e 50bc faa6 49bd
000001f0: 1dc4 69bc 03c9 1fbd c1d4 f9bc 3ce2 91bd
00000200: 7da2 2e3d 2ae0 90bd dadf 043d af26 1e3d
00000210: c1db 283d 8b93 6dbd d8fa 603d 0478 dcbc
00000220: 0f8f d03c 60e7 7c3d a4e9 83bc c08e 5f3a
00000230: 9d00 39bc 5e94 90bd 08a6 113d 43c5 83bd
00000240: d8c4 e63c 050f 5e3d 8876 9d3d 5094 29bc
00000250: d752 78bd a732 2c3c b4fc 623d 7edd 93bd
00000260: 7bd0 cbbc d2f6 febc 9999 e6bb f4cc 30bd
00000270: 6fe3 903b 5880 acbc d097 a2bd 853b 3a3d
00000280: fb5d 6b3d d292 edbb b788 98bc b09b 03bd
00000290: d268 7ebd ba69 a6bd fb73 c53c 5cec 14bd
000002a0: f409 b1bd 9f03 03bc f524 57bc 5591 c8bc
000002b0: c5ed a239 1aa3 87bc c596 81bd d271 13bd
000002c0: 0a76 43bd 8b8f 923d e6c1 f3bc 31dd 3f3c
000002d0: 0cad e3bc 9ab7 773b 961d 893d d336 3b3d
000002e0: 328e 81bd 5441 aa3c d0cb 613d bac5 813c
000002f0: 33b4 553d 37ae 9a3d 4f82 4fbc 0085 2a3c
00000300: 9b46 48bd e439 a93c 94bc 413d 7c29 063d
00000310: 1661 e4bc cd5b 8abd 8a59 1fbd cab5 8cbd
00000320: 4bbb 5cbd 5c79 dcbc eb54 673d f379 d83b
00000330: 0ba9 85bd 61e9 a0bd f64c 223d 0e47 83bd
00000340: 93f5 37bc 2ae1 053d d16f bdbc 402b 0dbc
00000350: 7e27 53bb 9025 52bc e6d3 863a 477c 8ebd
00000360: 2abe 44bd 85d6 93bb 1c93 813d 04d1 39bd
00000370: cc06 a8bd 5552 c33c 441a 223c 7971 2a3d
00000380: a710 523d e6ae f43c 438a 9abd 775f a83b
00000390: c7fe 0a3d 1463 2abb aa4b 3ebd 1bd4 a03d
000003a0: c1ba d9bb f5e3 36bd c65d 6ebd 3e34 293d
000003b0: c9c9 d13c 9669 d73c fea1 a33c 74bf 5dbd
000003c0: 9e07 9dbd b203 0d3c ec79 773d 6928 003d
000003d0: 24f5 3cbd 68f8 2cbc 8f0e 31bd e39a 17bd
000003e0: b8af 883c af2f ee3c 1d6f 783d a922 8ebd
000003f0: 92e4 6e3d aee0 5bbd 663c f83c 9beb 523d

temporal_blocks.0.conv1.bias f4 [64]
0.07108114 0.07780677 -0.049067266 0.004426835 -0.058086105 0.0021573475 0.009647273 -0.025286831
0.023531366 -0.033697054 0.043095183 0.0029789046 0.048711322 0.0436062 0.043753523 0.020679941
-0.031846225 -0.04925785 0.051825672 0.0406687 0.013545024 0.066784024 0.03673795 0.04930051
-0.013275285 0.0072832233 -0.071349144 -0.070417166 0.036975715 -0.035664927 0.058696385 -0.061910234
-0.056130074 -0.056350935 0.05277756 -0.044498675 -0.05414876 0.02296215 -0.010205919 -0.06818805
0.059060156 0.0454121 0.06347615 0.05318316 -0.053570513 -0.030335957 -0.019971265 -0.06580246
0.057280052 -0.034996524 0.022276917 -0.03872153 0.06669566 0.049352575 0.052550755 0.031752795
0.06459656 0.035602022 0.01890305 -0.013732859 0.06261807 -0.06152678 0.049754076 0.0034114637
00000000: fd92 913d 2859 9f3d c2fa 48bd fc0e 913b
00000010: b2eb 6dbd 4962 0d3b 990f 1e3c 5426 cfbc
00000020: dac4 c03c ec05 0abd 9384 303d ba39 433b
00000030: 8685 473d 6a9c 323d e536 333d fb68 a93c
00000040: 3071 02bd 99c2 49bd 2847 543d 3994 263d
00000050: f3eb 5d3c 10c6 883d 887a 163d 55ef 493d
00000060: 9580 59bc 1ba8 ee3b 801f 92bd e036 90bd
00000070: d973 173d 6315 12bd 9f6b 703d 9695 7dbd
00000080: a6e8 65bd 3dd0 66bd 482d 583d 3e44 36bd
00000090: 17cb 5dbd 1e1b bc3c ba36 27bc 2da6 8bbd
000000a0: 10e9 713d 0a02 3a3d c9ff 813d 96d6 593d
000000b0: c16c 5bbd 1d83 f8bc c79a a3bc 71c3 86bd
000000c0: 7d9e 6a3d 8458 0fbd 157e b63c 789a 1ebd
000000d0: bc97 883d ed25 4a3d 763f 573d 380f 023d
000000e0: 344b 843d 6dd3 113d 92da 9a3c c9ff 60bc
000000f0: e73d 803d 8103 7cbd eeca 4b3d dd92 5f3b

temporal_blocks.0.conv2.weight f4 [64, 64, 3]
-0.02653153 -0.043861173 -0.034475714 -0.001744456 -0.026561558 0.023414532 0.031535648 -0.057152342
0.032762464 -0.067291275 -0.007895676 -0.007924469 0.022886936 -0.06367441 -0.051935926 0.034082484
-0.016790314 -0.021012256 -0.056198396 0.002321075 0.030227398 -0.0051591443 -0.01334741 -0.027961396
-0.0008955025 0.056752447 0.017099692 9.299266e-05 0.008958332 0.007235816 0.005468337 -0.019128727
0.028999437 0.08662704 0.05614456 -0.03031712 -0.065433525 0.03289971 -0.036851585 -0.06608302
0.037286673 -0.07055552 0.071359865 -0.07073259 -0.06905078 0.04522557 0.0068569784 -0.037237827
0.00922183 -0.055149417 -0.027972043 -0.08475314 -0.035378296 -0.06136692 0.061425086 -0.027955456
0.0037329092 -0.019097524 -0.021885676 0.067152105 -0.019701708 0.014934223 0.032405328 -0.04171055
0.04832938 0.05173033 -0.042443596 0.055310998 -0.033039626 -0.06982595 -0.05469345 -0.00844625
-0.030893942 -0.0392814 -0.020313127 -0.04433179 0.062023427 -0.007607782 0.057770047 0.028726539
0.023890825 0.024910986 -0.05587616 -0.017493334 -0.068864495 0.07368883 0.03060898 -0.04251206
-0.0798602 0.031515855 0.052750964 -0.06087544 -0.06283608 0.005725927 0.027513165 -0.058650747
0.0049050874 0.048018675 0.022881921 -0.00926121 -0.0094984565 0.00080006395 0.05778269 0.03929205
0.0060360646 0.030280234 0.039679997 -0.06426126 -0.021580523 0.02822702 -0.0015833386 -0.05814451
0.026135392 -0.0651002 -0.031467684 0.043425888 -0.0065916586 -0.02159197 0.029006502 0.0034075559
0.004351816 -0.06728191 -0.025081951 0.0093994485 -0.042320285 0.015153115 -0.059294637 0.04459292
0.047877565 0.09800376 -0.0047966065 -0.091990195 -0.03223815 0.012196487 -0.06654357 0.079172246
0.007406405 0.05480593 -0.05613403 -0.054635435 0.004683986 0.036464907 -0.058431823 0.043187078
0.0120697515 -0.01967117 0.068011485 -0.074221976 -0.078357115 -0.00082301814 0.08213543 0.04653458
-0.041069653 0.07705032 0.028229322 0.0029374931 0.077651784 0.0018064586 -0.0038341675 -0.0111554805
-0.023721786 -0.032465935 0.005761849 -0.06466015 0.052846663 0.0051575885 -0.056253172 -0.042846978
0.0346624 -0.0385574 -0.015391553 -0.041697405 -0.018681617 0.026737196 -0.012049292 0.04346263
0.008461665 -0.08144485 -0.024563162 0.04696337 0.040017467 0.013776431 0.010577617 0.08683472
0.030422362 -0.013619207 -0.03926332 0.051116068 -0.037510708 -0.035100147 0.00027061597 -0.068323374
-0.057184972 -0.058746148 0.062997885 -0.061803833 0.051396582 -0.011694085 0.0048320666 -0.041518953
-0.010859019 0.030583072 -0.034752134 -0.058650102 0.020129446 0.014594206 -0.05043378 -0.016592512
0.07284602 -0.014617557 0.039985184 -0.04273272 -0.05224424 -0.09283977 0.02570858 -5.1439107e-05
0.04392451 0.03638429 0.010092755 0.028086906 0.059281956 0.054149844 0.011419599 -0.0067603397
0.0023477592 -0.021958156 0.041975953 -0.011715143 -0.007719645 -0.044761922 0.05912187 -0.06437395
-0.044172388 0.005651562 -0.028685352 -0.013334274 0.06459547 0.032005414 0.000482506 0.02773235
-0.01745531 -0.05834864 -0.06546174 0.06980729 0.017019425 0.018480334 -0.03715978 -0.047675814
0.030363 0.04082343 -0.08376682 -0.090754144 -0.04386175 0.026921969 -0.0783897 0.08362542
00000000: a758 d9bc c6a7 33bd 6836 0dbd 3ba6 e4ba
00000010: a097 d9bc d5cf bf3c 862b 013d 9318 6abd
00000020: ef31 063d 02d0 89bd de5c 01bc a2d5 01bc
00000030: 627d bb3c bb67 82bd c4ba 54bd 139a 0b3d
00000040: d78b 89bc e521 acbc 4a30 66bd 2d1d 183b
00000050: 739f f73c 0a0e a9bb 18af 5abc 4c0f e5bc
00000060: 28c0 6aba 4175 683d a714 8c3c 0e05 c338
00000070: f8c5 123c 6d1a ed3b bc2f b33b d9b3 9cbc
00000080: 3a90 ed3c 8469 b13d d7f7 653d 9c5b f8bc
00000090: 0302 86bd d9c1 063d b0f1 16bd 8956 87bd
000000a0: e9b9 183d 6a7f 90bd 1f25 923d 40dc 90bd
000000b0: 7f6a 8dbd 733e 393d 81b0 e03b b186 18bd
000000c0: 2917 173c 5be4 61bd a025 e5bc 0e93 adbd
000000d0: d5e8 10bd e15b 7bbd df98 7b3d d702 e5bc
000000e0: d3a3 743b 6972 9cbc 9749 b3bc 0b87 893d
000000f0: 7a65 a1bc acae 743c 73bb 043d afd8 2abd
00000100: 07f5 453d 2fe3 533d 56d9 2dbd c98d 623d
00000110: 8f54 07bd e800 8fbd 3d06 60bd 2462 0abc
00000120: 4b15 fdbc 89e5 20bd b767 a6bc 4095 35bd
00000130: 470c 7e3d b34a f9bb 49a0 6c3d eb53 eb3c
00000140: b1b6 c33c 2012 cc3c 66de 64bd 2e4e 8fbc
00000150: d408 8dbd 2bea 963d afbf fa3c 2021 2ebd
00000160: bf8d a3bd c516 013d 6511 583d 8658 79bd
00000170: 34b0 80bd 8fa0 bb3b 4a63 e13c c43b 70bd
00000180: dbba a03b 3baf 443d de72 bb3c 55bc 17bc
00000190: 6a9f 1bbc 62bb 513a 8bad 6c3d b3f0 203d
000001a0: 2eca c53b 410e f83c 7e87 223d 689b 83bd
000001b0: a3c9 b0bc 5a3c e73c 0788 cfba f028 6ebd
000001c0: e419 d63c 4153 85bd 42e4 00bd 58df 313d
000001d0: d7fe d7bb a5e1 b0bc 0b9f ed3c 4d51 5f3b
000001e0: ae99 8e3b 19cb 89bd aa78 cdbc 2500 1a3c
000001f0: 0958 2dbd c544 783c efde 72bd 11a7 363d
00000200: 441b 443d 32b6 c83d da2c 9dbb 5b65 bcbd
00000210: 260c 04bd c6d3 473c ff47 88bd 0f25 a23d
00000220: 6eb1 f23b 2f7c 603d ccec 65bd 68c9 5fbd
00000230: 1f7c 993b 3a5c 153d 3556 6fbd efe4 303d
00000240: 35c0 453c 6f25 a1bc 9b49 8b3d b101 98bd
00000250: b279 a0bd d0bf 57ba 9f36 a83d 0b9b 3e3d
00000260: a738 28bd 8fcc 9d3d 2e41 e73c f582 403b
00000270: e607 9f3d b1c6 ec3a a846 7bbb 7ac5 36bc
00000280: 3154 c2bc 00fb 04bd e5cd bc3b 8a6c 84bd
00000290: be75 583d fd00 a93b ba69 66bd 5080 2fbd
000002a0: 29fa 0d3d 5dee 1dbd da2c 7cbc e6ca 2abd
000002b0: 310a 99bc f707 db3c 656a 45bc df05 323d
000002c0: cca2 0a3c 8fcc a6bd af38 c9bc aa5c 403d
000002d0: 5be9 233d 8ab6 613c be4d 2d3c 67d6 b13d
000002e0: 5138 f93c 1823 5fbc 93d2 20bd 155f 513d
000002f0: d4a4 19bd 2cc5 0fbd 76e1 8d39 20ed 8bbd
00000300: ca3a 6abd cd9f 70bd 0905 813d 0426 7dbd
00000310: 3985 523d 8c98 3fbc 5056 9e3b c70f 2abd
00000320: 07ea 31bc 5a89 fa3c 4158 0ebd 173b 70bd
00000330: 82e6 a43c 891c 6f3c a793 4ebd 05ed 87bc
00000340: 4b30 953d 7a7e 6fbc 81c7 233d 8108 2fbd
00000350: 0efe 55bd c722 bebd cd9a d23c 52c0 57b8
00000360: 30ea 333d b107 153d 155c 253c 8316 e63c
00000370: a3d1 723d 3acc 5d3d 4519 3b3c d785 ddbb
00000380: dddc 193b 97e1 b3bc faee 2b3d dff0 3fbc
00000390: 13f5 fcbb 4758 37bd c629 723d 7dd6 83bd
000003a0: 1bee 34bd bd30 b93b 8bfd eabc 0078 5abc
000003b0: a14a 843d 1c18 033d dcf8 fc39 f42e e33c
000003c0: 70fe 8ebc fcfe 6ebd ce10 86bd 20f7 8e3d
000003d0: 526c 8b3c 1264 973c da34 18bd b747 43bd
000003e0: d4bb f83c 7836 273d f08d abbd 4fdd b9bd
000003f0: 61a8 33bd 768b dc3c c78a a0bd ce43 ab3d

temporal_blocks.0.conv2.bias f4 [64]
0.031621724 0.029980263 0.036561087 -0.06847074 -0.018035648 0.036069356 0.032636512 0.07136026
-0.017306244 0.010237618 0.026342146 -0.036117584 0.036219895 0.08331205 0.049585793 0.03722635
0.035054453 0.05146657 -0.04947642 0.04910685 0.05241031 0.030408073 -0.0075640185 0.06405064
0.020498695 0.028680498 -0.089846894 0.07109567 -0.10428362 0.033844464 0.075205736 0.04220629
-0.009490795 0.0009931147 -0.042266853 -0.06478838 -0.022478655 0.022749474 0.05140356 -0.016422201
0.021573603 0.016277224 -0.0022299213 0.04308585 -0.009500624 0.0078111007 0.009009883 -0.032104127
0.014728619 0.053752683 0.026122384 -0.0049150772 0.027825372 0.041629817 -0.009700954 -0.049064543
0.041890137 0.0043063466 0.039297793 0.0042965 0.019618798 0.025750505 0.018863158 -0.0029451374
00000000: c885 013d 2b99 f53c 14c1 153d 633a 8cbd
00000010: 7fbf 93bc 76bd 133d ddad 053d 5425 923d
00000020: d3c5 8dbc afbb 273c 7ccb d73c 08f0 13bd
00000030: 505b 143d 829f aa3d 791a 4b3d a87a 183d
00000040: 4295 0f3d 9cce 523d c9a7 4abd 4424 493d
00000050: 31ac 563d 5a1a f93c 96db f7bb fb2c 833d
00000060: e1ec a73c 5df3 ea3c a601 b8bd 9b9a 913d
00000070: a792 d5bd 7ea0 0a3d 7705 9a3d 81e0 2c3d
00000080: 487f 1bbc 662b 823a 0220 2dbd c5af 84bd
00000090: 2825 b8bc 1b5d ba3c 8a8c 523d da87 86bc
000000a0: 20bb b03c d057 853c df23 12bb ca7a 303d
000000b0: 81a8 1bbc 43f4 ff3b 309e 133c 9e7f 03bd
000000c0: 4e50 713c c62b 5c3d 9cfe d53c a80e a1bb
000000d0: 09f2 e33c 0784 2a3d c0f0 1ebc e7f7 48bd
000000e0: fe94 2b3d 411c 8d3b b9f6 203d a7c9 8c3b
000000f0: 9ab7 a03c b9f2 d23c e986 9a3c 3503 41bb

temporal_blocks.0.norm1.weight f4 [64]
1.0109853 1.0064672 0.9782245 1.0026258 0.99316096 0.9967081 1.0018563 1.0130558
0.9878809 1.0303301 1.027601 1.0070772 0.9650043 1.0342011 0.9925642 1.0064921
1.0008675 0.996467 0.98759633 0.99542344 1.0107636 0.9912974 0.9988981 0.9932867
1.0109876 0.9996032 1.0106918 0.9929433 0.992606 1.043889 0.9910848 1.0155805
1.0187697 1.0054977 1.008142 1.021723 0.99468356 0.98623455 1.0077128 0.9828683
1.0013114 0.9712516 1.0306777 1.0226873 0.98623466 1.0052352 0.99827886 1.0133846
1.0040644 0.995448 0.9938982 1.0091736 1.0153251 0.98361146 1.0190616 1.003749
1.0204049 1.00037 1.0446321 1.0041229 1.0051479 1.0267998 0.9703723 1.0117201
00000000: f767 813f ebd3 803f ec6c 7a3f 0b56 803f
00000010: cc3f 7e3f 4328 7f3f d43c 803f d0ab 813f
00000020: c3e5 7c3f dbe1 833f 6e88 833f e8e7 803f
00000030: 860a 773f b460 843f b018 7e3f bcd4 803f
00000040: 6d1c 803f 7618 7f3f 1dd3 7c3f 12d4 7e3f
00000050: b460 813f abc5 7d3f c9b7 7f3f 0a48 7e3f
00000060: 0b68 813f ffe5 7f3f 595e 813f 8831 7e3f
00000070: 6d1b 7e3f 289e 853f bcb7 7d3f 8bfe 813f
00000080: 0c67 823f 26b4 803f cc0a 813f d2c7 823f
00000090: 95a3 7e3f de79 7c3f bcfc 803f 429d 7b3f
000000a0: f92a 803f f2a3 783f 3fed 833f 6be7 823f
000000b0: e079 7c3f 8cab 803f 348f 7f3f 96b6 813f
000000c0: 2f85 803f aed5 7e3f 1d70 7e3f 9a2c 813f
000000d0: 2cf6 813f f6cd 7b3f 9c70 823f d97a 803f
000000e0: a19c 823f 200c 803f 81b6 853f 1987 803f
000000f0: b0a8 803f 2d6e 833f 526a 783f 0b80 813f

temporal_blocks.0.norm1.bias f4 [64]
0.0013446616 -0.048480883 -0.006482121 -0.004945383 -0.008387749 -0.0030841331 -0.0027496554 0.0050563565
-0.005903094 -0.03356283 -0.018651484 -0.0051411046 -0.013272623 -0.005908375 0.005944733 0.0028240131
-0.0049925107 -0.008574995 -0.011571916 -0.009709647 -0.0055676755 -0.0037823492 -0.005322186 -0.0072511607
-0.010079684 -0.00836904 -0.017026313 -0.020937487 -0.037509542 -0.0009352733 -0.01177597 -0.011963903
-0.0026040156 0.0018651017 0.0010393525 -0.00016716687 -0.0052865087 -0.029747672 -0.0028904956 -0.01756195
-0.0018419574 -0.013627579 -0.0011942756 -0.00041140782 -0.0050606737 0.0001737188 -0.0016723255 0.009502039
-0.0019038863 -0.025152087 -0.0074936613 -0.0065669906 -0.007867171 -0.009610698 -0.0025091346 -0.019708382
-0.023949329 -0.0027469762 -0.0150981955 -0.0014168816 -0.0035742132 0.0025832204 -0.017364608 0.00537687
00000000: 5b3f b03a e493 46bd f967 d4bb e10c a2bb
00000010: c56c 09bc 2b1f 4abb 9033 34bb cbaf a53b
00000020: be6e c1bb 2e79 09bd ffca 98bc b676 a8bb
00000030: 6a75 59bc 0b9b c1bb 09cc c23b 1413 393b
00000040: 3798 a3bb 237e 0cbc 2298 3dbc 3615 1fbc
00000050: 0c71 b6bb 4ae1 77bb bb65 aebb 259b edbb
00000060: 4225 25bc 4c1e 09bc c47a 8bbc 1885 abbc
00000070: 9ba3 19bd 212d 75ba 00f0 40bc 3f04 44bc
00000080: 22a8 2abb 6e76 f43a e23a 883a 8449 2fb9
00000090: 733a adbb 64b1 f3bc 786e 3dbb 14de 8fbc
000000a0: d66d f1ba 3646 5fbc 3d89 9cba 39b2 d7b9
000000b0: 02d4 a5bb 4928 3639 ef31 dbba 71ae 1b3c
000000c0: d38b f9ba c00b cebc 638d f5bb e92f d7bb
000000d0: 4fe5 00bc 3076 1dbc 4b70 24bb 7973 a1bc
000000e0: 6231 c4bc 9d06 34bb 6c5e 77bc a8b6 b9ba
000000f0: 593d 6abb 3f4b 293b 3940 8ebc 7430 b03b

temporal_blocks.0.norm2.weight f4 [64]
1.0021795 0.9890293 0.9897379 0.99613917 0.9739758 0.9987076 1.0158843 1.0097132
0.98817813 0.9792668 0.99878734 0.9862384 0.98107994 0.9936812 0.9800617 0.9874115
0.9923543 0.98459005 1.0053747 0.9860656 0.95505387 0.99762154 0.9689356 1.0019453
0.9983362 1.008009 1.0027723 0.9835773 1.0139127 0.9945436 0.99977225 1.0020953
0.9837764 0.9835132 0.99307877 0.9689927 0.9780354 1.0153089 0.97482693 1.0044267
1.0136713 1.0063301 1.0049481 0.9993652 1.0406969 1.0035174 0.9959925 0.9892658
0.9884772 1.0043696 0.9420312 0.999047 0.9854335 0.99715036 1.0189376 0.97055525
0.96101105 0.9911855 0.96656936 0.96194714 1.0032032 1.0141088 0.96735334 0.99611294
00000000: 6b47 803f 0631 7d3f 775f 7d3f fa02 7f3f
00000010: 7a56 793f 4dab 7f3f 7f08 823f 483e 813f
00000020: 3ef9 7c3f 3bb1 7a3f 87b0 7f3f 1f7a 7c3f
00000030: 0e28 7b3f e461 7e3f 53e5 7a3f 00c7 7c3f
00000040: ee0a 7e3f 180e 7c3f 1eb0 803f cc6e 7c3f
00000050: 697e 743f 2064 7f3f 2a0c 783f be3f 803f
00000060: f692 7f3f 7006 813f d85a 803f b9cb 7b3f
00000070: e4c7 813f 699a 7e3f 13f1 7f3f a944 803f
00000080: c5d8 7b3f 85c7 7b3f 693a 7e3f e80f 783f
00000090: 8760 7a3f a4f5 813f 428e 793f 0e91 803f
000000a0: fbbf 813f 6dcf 803f 24a2 803f 66d6 7f3f
000000b0: 8e35 853f 4273 803f 5df9 7e3f 8640 7d3f
000000c0: d70c 7d3f 2f8f 803f f528 713f 8bc1 7f3f
000000d0: 5f45 7c3f 3f45 7f3f 8c6c 823f 4f76 783f
000000e0: d204 763f 55be 7d3f 1771 773f 2b42 763f
000000f0: f668 803f 51ce 813f 78a4 773f 4201 7f3f

temporal_blocks.0.norm2.bias f4 [64]
-0.0026378466 0.026406337 0.0019294448 0.0016992564 -0.008504808 -0.014481137 0.0246996 -0.0024074703
-0.00020021542 0.0013369892 -0.0067916363 -0.015158739 -0.0061723264 0.018053453 0.0009897505 0.00541693
-0.010827992 -0.0074684704 0.0054235253 -0.012057745 -0.005828962 -0.005542434 0.033317354 0.0067383265
0.004158008 0.002031072 -0.015463365 -0.0011798065 -0.025227837 -0.0049951677 0.010476434 0.001037359
0.0072084344 0.009384273 0.0028836206 -0.013820066 0.0071532875 -0.011115958 0.002685141 -0.0016268159
-0.0039395066 0.004610396 0.021254584 -0.0073463167 0.031642012 -0.005497367 -0.0036212346 -0.0063039646
-0.0024139895 0.0038396232 -0.007059826 0.0033717144 -0.008501378 0.008982601 0.013896355 0.0059760083
0.0075439536 0.0073483596 -0.009825421 -0.008668748 0.007538004 -0.0062970826 -0.034655616 0.011020121
00000000: b9df 2cbb 1a52 d83c 6de5 fc3a 95b9 de3a
00000010: c057 0bbc 4a42 6dbc d156 ca3c a6c6 1dbb
00000020: ebf0 51b9 ea3d af3a 608c debb 5c5c 78bc
00000030: 3a41 cabb d6e4 933c 84ba 813a 8180 b13b
00000040: e467 31bc 12ba f4bb d4b7 b13b d98d 45bc
00000050: e100 bfbb 4e9d b5bb c777 083d 2ecd dc3b
00000060: e63f 883b bc1b 053b 0e5a 7dbc bda3 9aba
00000070: 9caa cebc 81ae a3bb 59a5 2b3c fef7 873a
00000080: bb34 ec3b 7ec0 193c 20fb 3c3b 8f6d 62bc
00000090: 2066 ea3b b51f 36bc 31f9 2f3b e23a d5ba
000000a0: fa16 81bb ce12 973b 181e ae3c 5fb9 f0bb
000000b0: 0e9b 013d 4223 b4bb 3c52 6dbb 7d91 cebb
000000c0: 0634 1ebb 30a2 7b3b 1d56 e7bb fbf7 5c3b
000000d0: 5d49 0bbc c22b 133c 8aad 633c 64d2 c33b
000000e0: 4533 f73b 82ca f03b cdfa 20bc 5d07 0ebc
000000f0: 5c01 f73b c257 cebb 0cf3 0dbd bd8d 343c

temporal_blocks.1.conv1.weight f4 [64, 64, 3]
0.008137967 -0.03098806 0.021871066 -0.072252706 0.045747455 0.034645855 0.0628305 0.0664226
-0.011679737 -0.020519437 -0.055455133 0.012806159 0.00619029 -0.015613381 -0.039442588 0.048667837
0.04302976 -0.072220474 -0.06610134 -0.03017058 0.005202351 -0.00012556971 0.07513667 0.01692269
-0.018422516 0.03990015 -0.008242631 0.040900577 -0.018641587 -0.03829381 0.007756584 -0.06002115
0.058286086 0.018287547 0.056310683 0.058863092 0.014366036 -0.0046864594 -0.02394506 -0.04332645
0.027186433 -0.038109593 0.062944874 0.04069272 0.016448207 0.04836964 0.018059652 0.06672276
-0.04690681 -0.06375737 -0.039295435 0.04590529 0.038264584 -0.034312714 0.010110312 0.05638462
-0.07872852 0.020642694 -0.000760733 0.011069059 -0.06559051 0.0089034075 0.018899934 0.059320483
0.059218038 -0.017812105 0.0643371 -0.057805836 0.009870821 -0.015629405 -0.057321765 0.048063073
0.101258434 -0.02293829 -0.064622276 0.02812999 0.0616596 -0.053680696 -0.03768727 0.04295612
0.06765473 0.07367341 0.07623543 0.06274299 0.040637076 -0.07523087 0.053453416 -0.019410014
-0.048922323 -0.032557756 -0.063783035 -0.065809704 -0.011931609 0.02709305 -0.059493266 -0.07650248
0.038734317 0.021483324 0.03971052 -0.03207247 0.021469768 -0.040263295 0.066050634 0.011107534
-0.06319137 0.020103857 0.060165633 -0.052028198 0.008573071 -0.031416833 -0.056662872 0.015398297
0.04505177 0.072762 0.0007102692 0.0064435736 0.010824323 0.053469736 -0.011446089 0.011516561
-0.0152169755 -0.021055127 0.038399518 0.023340698 0.0106588965 -0.015362576 0.035478115 0.018911479
-0.0059392285 -0.037353545 -0.036879543 -0.054031372 -0.050838355 -0.07688914 0.013676766 -0.045834508
-0.06016854 -0.015391172 -0.057397466 -0.07419936 0.020595994 0.02892953 -0.01902604 -0.07309312
0.059935253 0.06878422 0.08329378 0.048244264 0.07466403 -0.03267477 -0.06462575 -0.045547012
0.06520008 -0.062516086 -0.011368993 0.07823712 0.072865754 0.0311179 0.07882144 0.005872825
0.044092923 -0.020505581 0.051260363 -0.025694573 0.082287975 -0.07729793 -0.07233843 0.03141559
-0.0023472502 0.0030308138 -0.050598357 -0.05891642 0.00079310784 0.0577217 0.031077698 0.004561639
-0.04531665 0.05273501 -0.0023114104 -0.0021622893 0.006752232 0.06019393 0.05856259 -0.03291152
0.01667444 -0.014068904 -0.04981269 -0.05387036 -0.025103677 0.036834147 -0.027390312 -0.065434
0.021352444 -0.029940428 -0.024944695 0.0137300445 0.08379125 -0.036291525 0.017320065 -0.01606745
0.044718992 -0.0054575177 0.016624752 -0.0007884225 0.050325435 -0.06777155 0.008054734 0.076308265
0.072761565 0.0011356621 0.020593606 0.061581455 0.051701624 -0.0057638697 0.0018893981 0.05730439
-0.03498766 0.0049287695 0.014831382 -0.064047374 -0.05090845 -0.08242907 -0.02877596 -0.061948325
0.06574951 -0.019451614 -0.024218028 0.03762814 -0.0669956 -0.018464085 -0.0017592096 -0.00982158
0.055905 0.042342883 -0.020039696 0.005866593 -0.0149405 -0.028491214 -0.00049492094 0.0024485837
0.008744799 0.02459594 0.035528377 -0.007041294 -0.035151627 0.027111983 0.01945411 0.0033440297
-0.0733871 0.0027684376 -0.0430484 0.05565164 -0.04702789 -0.035131965 0.023847146 0.039363567
00000000: 1c55 053c acda fdbc f32a b33c 3af9 93bd
00000010: af61 3b3d d0e8 0d3d 47ad 803d 9208 883d
00000020: 5e5c 3fbc 6118 a8bc ec24 63bd edd0 513c
00000030: ebd7 ca3b 44cf 7fbc 8d8e 21bd ed57 473d
00000040: f93f 303d 54e8 93bd 2460 87bd 4b28 f7bc
00000050: 7c78 aa3b 5dab 03b9 41e1 993d 74a1 8a3c
00000060: d1ea 96bc 576e 233d 1a0c 07bc 5d87 273d
00000070: 3eb6 98bc f8d9 1cbd f12a fe3b bdd8 75bd
00000080: 64bd 6e3d c4cf 953c 08a6 663d 6d1a 713d
00000090: 865f 6b3c df90 99bb 6e28 c4bc 1377 31bd
000000a0: 15b6 de3c ce18 1cbd 3ee9 803d 69ad 263d
000000b0: 64be 863c 3e1f 463d d6f1 933c f1a5 883d
000000c0: 5b21 40bd 3993 82bd 40f4 20bd 2f07 3c3d
000000d0: 53bb 1c3d 7d8b 0cbd b9a5 253c 8ff3 663d
000000e0: 6b3c a1bd de1a a93c ed6b 47ba 005b 353c
000000f0: 5154 86bd 99df 113c 09d4 9a3c 09fa 723d
00000100: 9d8e 723d b1ea 91bc 2bc3 833d d0c5 6cbd
00000110: 39b9 213c 3d09 80bc 3aca 6abd c9dd 443d
00000120: 9560 cf3d 15e9 bbbc af58 84bd dd70 e63c
00000130: c78e 7c3d 4ae0 5bbd f85d 1abd c2f2 2f3d
00000140: 908e 8a3d 16e2 963d 5221 9c3d 667f 803d
00000150: 1073 263d a412 9abd f8f1 5a3d c001 9fbc
00000160: c662 48bd 485b 05bd aea0 82bd 3dc7 86bd
00000170: cc7c 43bc 3ef2 dd3c 36af 73bd 55ad 9cbd
00000180: e0a7 1e3d ccfd af3c 80a7 223d 6c5e 03bd
00000190: 5ee1 af3c 20eb 24bd 8e45 873d 60fc 353c
000001a0: 7a6a 81bd d8b0 a43c 3d70 763d 851b 55bd
000001b0: 1176 0c3c f0ae 00bd 5417 68bd 2449 7c3c
000001c0: 3488 383d 3e04 953d 5c31 3a3a 9d24 d33b
000001d0: 8058 313c 1503 5b3d 6088 3bbc f5af 3c3c
000001e0: 9f50 79bc cd7b acbc d048 1d3d fe34 bf3c
000001f0: a7a2 2e3c 50b3 7bbc 8051 113d 3fec 9a3c
00000200: dc9d c2bb 0800 19bd 010f 17bd 0050 5dbd
00000210: e13b 50bd 0e78 9dbd 8414 603c f7bc 3bbd
00000220: 4973 76bd 412b 7cbc 9b19 6bbd d6f5 97bd
00000230: eeb8 a83c 9ffd ec3c 7fdc 9bbc d8b1 95bd
00000240: ab7e 753d bede 8c3d ee95 aa3d c79b 453d
00000250: 74e9 983d fbd5 05bd 815a 84bd 818f 3abd
00000260: 9f87 853d 6f08 80bd 0345 3abc c83a a03d
00000270: a43a 953d f7ea fe3c 236d a13d d470 c03b
00000280: c89a 343d 52fb a7bc 63f6 513d 6d7d d2bc
00000290: 9986 a83d 614e 9ebd 2c26 94bd a2ad 003d
000002a0: 53d4 19bb 9ea0 463b 3940 4fbd 5852 71bd
000002b0: 91e8 4f3a 976d 6c3d a896 fe3c cd79 953b
000002c0: f49d 39bd aa00 583d 087b 17bb 32b5 0dbb
000002d0: d441 dd3b e98d 763d 54df 6f3d 3bce 06bd
000002e0: d698 883c 4381 66bc 6408 4cbd 2ba7 5cbd
000002f0: 3aa6 cdbc 67df 163d a661 e0bc 4302 86bd
00000300: 52eb ae3c a145 f5bc d158 ccbc fbf3 603c
00000310: bf9a ab3d 6ca6 14bd cfe2 8d3c e39f 83bc
00000320: 432b 373d fad4 b2bb a230 883c 23ae 4eba
00000330: 0b22 4e3d cfcb 8abd 01f8 033c 8247 9c3d
00000340: 0404 953d 7fda 943a ecb3 a83c d63c 7c3d
00000350: 15c5 533d d8de bcbb aea5 f73a 02b8 6a3d
00000360: 384f 0fbd 8481 a13b 53ff 723c 452b 83bd
00000370: 6185 50bd 92d0 a8bd 90bb ebbc 87bd 7dbd
00000380: aea7 863d fe58 9fbc e364 c6bc f71f 1a3d
00000390: fd34 89bd fe41 97bc 4795 e6ba b1ea 20bc
000003a0: a4fc 643d bb6f 2d3d 4a2a a4bc 8d3c c03b
000003b0: 00c9 74bc 6866 e9bc 95bd 01ba 6b78 203b
000003c0: 5846 0f3c 6d7d c93c 3486 113d a8ba e6bb
000003d0: 27fb 0fbd f319 de3c 3a5e 9f3c 8227 5b3b
000003e0: fa4b 96bd ad6e 353b 8553 30bd f9f2 633d
000003f0: 51a0 40bd 89e6 0fbd 175b c33c b13b 213d

temporal_blocks.1.conv1.bias f4 [64]
0.03981349 0.050671387 0.058313344 0.014417505 0.05805933 0.050013747 0.02651691 0.038247544
0.014113508 0.0074564423 0.007871749 -0.0627839 0.06658093 -0.020259384 0.07050815 0.00044187933
0.07309896 -0.0017648573 0.058656443 -0.023237118 -0.00553051 0.055502847 -0.009706463 -0.009569307
-0.06465658 0.06556513 0.01365064 0.06544641 -0.06470761 -0.05371933 0.041662574 0.004896476
-0.041717052 -0.025997825 0.010404258 -0.026584951 0.015384078 -0.017600266 0.007708832 0.07049681
0.058580298 -0.04921843 -0.036982417 0.016815329 -0.053276334 -0.038857244 -0.038200192 -0.057443935
0.051578213 0.05529043 0.026882548 0.018023474 -0.056687232 -0.0015737676 -0.04551371 0.04859087
0.010377826 -0.0021264066 -0.014233759 0.011952254 -0.03820854 0.01446434 0.00072722073 0.0026405076
00000000: 7813 233d cd8c 4f3d f9d9 6e3d 6637 6c3c
00000010: 9fcf 6d3d 37db 4c3d fe39 d93c 75a9 1c3d
00000020: 583c 673c 2c55 f43b 82f8 003c d894 80bd
00000030: 955b 883d 02f7 a5bc 9466 903d 0aac e739
00000040: e8b4 953d c952 e7ba bd41 703d c55b bebc
00000050: 4839 b5bb f456 633d db07 1fbc 95c8 1cbc
00000060: ab6a 84bd 0347 863d efa6 5f3c c408 863d
00000070: 6c85 84bd cd08 5cbd 60a6 2a3d 9e72 a03b
00000080: 80df 2abd 64f9 d4bc 9f76 2a3c afc8 d9bc
00000090: 800d 7c3c 6f2e 90bc 5f9a fc3b a260 903d
000000a0: e5f1 6f3d 4499 49bd e07a 17bd 4dc0 893c
000000b0: 4938 5abd c628 1fbd ce77 1cbd 554a 6bbd
000000c0: ad43 533d 3878 623d ca38 dc3c f7a5 933c
000000d0: df30 68bd e146 ceba 956c 3abd 3807 473d
000000e0: c207 2a3c 2f5b 0bbb b634 69bc 63d3 433c
000000f0: 8f80 1cbd d7fb 6c3c f5a2 3e3a 5e0c 2d3b

temporal_blocks.1.conv2.weight f4 [64, 64, 3]
0.017433297 -0.015270062 -0.044171955 -0.06605751 0.025780322 -0.032595735 0.05038635 0.037019692
-0.082165666 -0.035638355 0.05356809 -0.056691952 0.10782497 -0.0125321895 -0.005955153 0.08278763
-0.015037273 0.06608243 0.0850518 -0.0060815136 -0.04905724 -0.071594924 -0.007828635 -0.042067256
-0.045471326 -0.015129875 0.064083755 0.007931527 0.03481439 -0.024370192 0.07997969 -0.039261438
-0.025760313 -0.019590067 0.054985013 0.07019411 -0.035279218 0.036539346 -0.049738616 0.019677958
0.00802276 0.025280554 -0.012399347 -0.036402754 -0.05938792 0.057194375 -0.048526283 0.009489733
0.013495257 -0.124674745 -0.0044259788 0.029350067 0.017890805 -0.04517849 -0.05236982 -0.034142397
0.014349146 0.0019655973 0.023315283 -0.0017911507 -0.0129052065 -0.042220503 0.018412443 0.05580866
0.019537138 -0.0010499917 0.012507326 -0.0035411369 -0.027816338 0.10386856 -0.039117172 -0.065871395
0.05654299 -0.024942908 0.0740456 0.031932525 -0.043959644 -0.044025347 0.03369205 0.009462951
0.036759112 -0.054415617 0.019611176 0.069438376 -0.044116266 -0.05778519 -0.09143503 -0.053000443
0.0018141081 -0.027628917 -0.054189432 -0.011848447 0.026175166 -0.010180045 -0.06274542 0.07170398
-0.0055543953 -0.08646979 -0.00095183356 0.113635816 0.07564364 -0.021716481 -0.0010380016 0.04493676
0.044496693 0.054975826 0.033646774 0.03179051 -0.0657325 -0.056759596 0.045377664 -0.040610757
-0.03193442 0.02825969 -0.04611064 -0.017316246 0.05183064 0.0228226 0.025059622 0.080592774
0.03906528 -0.008300393 0.070171684 -0.055890575 -0.022988947 -0.049483623 0.045506965 0.07670763
0.049698796 0.039997384 -0.012179896 0.019740835 -0.043926235 -0.0044700243 -0.06290205 0.02320115
-0.07478683 0.047053542 -0.03766909 -0.032097742 0.06738279 -0.022276673 -0.03788369 0.027683062
0.011211307 -0.091850944 -0.052416775 0.0059518293 -0.017587375 0.015256027 5.0953636e-06 0.06720284
0.031282075 0.053948045 -0.033548813 -0.043773476 -0.029149286 0.01053801 0.021727815 0.055931777
0.0026882465 -0.05425717 -0.06739248 -0.033789486 -0.03518946 -0.023337873 -0.008060341 0.038646426
-0.033366624 -0.04133147 -0.0039390796 0.0072622695 -0.06740653 -0.06218554 -0.06395852 -0.07027782
-0.043298624 -0.03987986 0.013848439 -0.041579686 -0.041872945 0.012458715 0.0025605042 0.022285104
0.07059295 -0.034069303 0.04746139 0.0042271945 -0.02303966 0.06526392 -0.026778158 -0.050940856
0.040230375 0.05444524 0.029967427 -0.040433988 0.05790777 0.011700432 0.06123393 -0.0639614
-0.04615503 0.009059383 0.055926993 -0.0021403718 0.05733588 -0.025994502 0.046056606 -0.056067377
-0.007837202 -0.022288464 0.041288193 -0.05319911 -0.0026132541 0.07057061 -0.023515986 0.054160487
-0.04893943 -0.03136763 0.03620007 0.011111594 0.06490856 -0.0791156 0.033499643 -0.056899525
-0.009514136 -0.07765268 0.017330877 -0.06334029 0.070302725 0.062997796 -0.052032925 -0.015256773
0.005592888 -0.04106085 0.08363788 0.082134336 -0.04399686 0.0048185894 -0.057247702 -0.038590033
0.05701043 0.087011695 0.008864693 0.053805444 0.05514306 0.078475304 0.035414673 0.02636069
-0.056705117 -0.10246187 -0.06583437 -0.04518665 -0.018765172 -0.006510912 0.09398176 0.025702348
00000000: 46d0 8e3c 482f 7abc a7ed 34bd 2949 87bd
00000010: 4131 d33c 1b83 05bd eb61 4e3d f6a1 173d
00000020: 7946 a8bd 86f9 11bd 376a 5b3d d235 68bd
00000030: 56d3 dc3d d053 4dbc 7223 c3bb 908c a93d
00000040: e55e 76bc 3a56 873d a32f ae3d 6f47 c7bb
00000050: 3ff0 48bd 5ca0 92bd ad43 00bc b74e 2cbd
00000060: 2440 3abd 4ce3 77bc 583e 833d 3cf3 013c
00000070: 8999 0e3d ffa3 c7bc 64cc a33d 9ad0 20bd
00000080: 4b07 d3bc 597b a0bc f737 613d eec1 8f3d
00000090: f180 10bd 48aa 153d b8ba 4bbd ab33 a13c
000000a0: e571 033c 2a19 cf3c a126 4bbc 0e1b 15bd
000000b0: bf40 73bd a644 6a3d 7fc3 46bd d37a 1b3c
000000c0: 361b 5d3c 7955 ffbd cd07 91bb 8d6f f03c
000000d0: bd8f 923c 150d 39bd bd81 56bd e6d8 0bbd
000000e0: ae18 6b3c 40d1 003b b1ff be3c 0bc5 eaba
000000f0: 5c70 53bc 68ef 2cbd b1d5 963c 9f97 643d
00000100: 590c a03c e09f 89ba 87eb 4c3c 6b12 68bb
00000110: 17df e3bc 0ab9 d43d 5439 20bd 95e7 86bd
00000120: 9f99 673d 1255 ccbc 38a5 973d aecb 023d
00000130: 070f 34bd ec53 34bd ad00 0a3d 7e0a 1b3c
00000140: b990 163d e9e2 5ebd 9ea7 a03c b535 8e3d
00000150: 42b3 34bd 2ab0 6cbd 4a42 bbbd fe16 59bd
00000160: 5ec7 ed3a 0a56 e2bc bdf5 5dbd fd1f 42bc
00000170: 4d6d d63c 34ca 26bc ac80 80bd 89d9 923d
00000180: a501 b6bb 1317 b1bd 7884 79ba e5b9 e83d
00000190: 0deb 9a3d c3e6 b1bc 8e0d 88ba 9c0f 383d
000001a0: 2a42 363d 552e 613d 33d1 093d c436 023d
000001b0: c39e 86bd c07c 68bd eedd 393d 7757 26bd
000001c0: abcd 02bd de80 e73c 83de 3cbd cdda 8dbc
000001d0: 5d4c 543d 76f6 ba3c d649 cd3c d30d a53d
000001e0: ea02 203d 5ffe 07bc 2cb6 8f3d 84ed 64bd
000001f0: 5153 bcbc 57af 4abd 8365 3a3d e418 9d3d
00000200: f790 4b3d 4cd4 233d 308e 47bc 88b7 a13c
00000210: ffeb 33bd 4879 92bb cad2 80bd 5710 be3c
00000220: d629 99bd 37bb 403d e74a 1abd ec78 03bd
00000230: fdff 893d 927d b6bc ee2b 1bbd 97c7 e23c
00000240: a1af 373c 591c bcbd f9b2 56bd 9007 c33b
00000250: 6613 90bc 6af4 793c d7f8 aa36 a4a1 893d
00000260: a221 003d a0f8 5c3d 7b6a 09bd d14b 33bd
00000270: 7cca eebc 9ea7 2c3c 88fe b13c b818 653d
00000280: 4b2d 303b c43c 5ebd 1205 8abd d866 0abd
00000290: d322 10bd 112f bfbc 850f 04bc b74b 1e3d
000002a0: 71ab 08bd 304b 29bd 6513 81bb 55f8 ed3b
000002b0: 6f0c 8abd 44b6 7ebd affc 82bd d1ed 8fbd
000002c0: e659 31bd 1059 23bd 90e4 623c 764f 2abd
000002d0: f782 2bbd a31f 4c3c 22ce 273b 408f b63c
000002e0: 0993 903d 418c 0bbd e066 423d 4784 8a3b
000002f0: abbd bcbc 17a9 853d de5d dbbc 5ca7 50bd
00000300: 9bc8 243d f901 5f3d 407e f53c 1c9e 25bd
00000310: b330 6d3d 2bb3 3f3c 6ed0 7a3d 32fe 82bd
00000320: 0f0d 3dbd ce6d 143c b413 653d 7b45 0cbb
00000330: 07d9 6a3d 6cf2 d4bc daa5 3c3d e8a6 65bd
00000340: 9c67 00bc 4c96 b6bc cf1d 293d 4fe7 59bd
00000350: 2143 2bbb 5387 903d 99a4 c0bc 63d7 5d3d
00000360: b674 48bd 587b 00bd 8646 143d 670d 363c
00000370: c7ee 843d 5c07 a2bd ec36 093d 7a0f 69bd
00000380: 2ee1 1bbc 5e08 9fbd 7cf9 8d3c 8eb8 81bd
00000390: e0fa 8f3d fd04 813d 7a20 55bd 8bf7 79bc
000003a0: 8c44 b73b 6c2f 28bd 564a ab3d 0c36 a83d
000003b0: 0d36 34bd 42e5 9d3b 917c 6abd 9510 1ebd
000003c0: c583 693d 3033 b23d 383d 113c 1963 5c3d
000003d0: b0dd 613d a9b7 a03d fa0e 113d 60f2 d73c
000003e0: a043 68bd 87d7 d1bd 2cd4 86bd a315 39bd
000003f0: 6bb9 99bc 7d59 d5bb 8279 c03d bb8d d23c

temporal_blocks.1.conv2.bias f4 [64]
-0.041742574 -0.036407392 0.02320634 -0.07882307 0.027364008 -0.09789103 0.052944608 -0.03046881
0.024422849 0.056663215 0.01341495 -0.002017184 0.03601538 -0.032050703 0.018219212 0.07513512
0.020717056 -0.013395554 0.01423878 0.056512196 0.0024682882 0.00061492185 0.027486403 0.047939926
-0.023548165 0.006397406 0.026489789 -0.072287366 -0.05249384 0.045269974 0.05295151 -0.010686894
0.024339896 -0.023359813 -0.060708787 -0.06876251 -0.05543423 0.032999594 -0.04055364 0.028374953
-0.015593624 -0.021704584 0.03576727 0.005771575 0.047459356 0.052937552 -0.013988791 0.024520267
0.019133303 -0.03714786 -0.034916814 -0.06140079 0.050753012 0.06849766 0.06977987 -0.027300814
0.036528446 0.05442739 0.030985601 -0.06408704 0.054322347 -0.05697757 0.011110727 0.011574032
00000000: 43fa 2abd eb1f 15bd 391b be3c fd6d a1bd
00000010: 7c2a e03c 187b c8bd 72dc 583d ba99 f9bc
00000020: 6d12 c83c b017 683d 61ca 5b3c bb32 04bb
00000030: dd84 133d 9947 03bd 7540 953c 71e0 993d
00000040: d1b6 a93c 0779 5bbc c649 693c 5579 673d
00000050: 01c3 213b b532 213a 2a2b e13c a85c 443d
00000060: 15e8 c0bc 55a1 d13b 1d01 d93c 660b 94bd
00000070: c803 57bd 026d 393d afe3 583d 1518 2fbc
00000080: 7664 c73c 145d bfbc c7a9 78bd 5cd3 8cbd
00000090: 010f 63bd 952a 073d 931b 26bd 9772 e83c
000000a0: 667c 7fbc d0cd b1bc b380 123d 7b1f bd3b
000000b0: be64 423d 0cd5 583d 3e31 65bc bade c83c
000000c0: 72bd 9c3c 5b28 18bd ef04 0fbd 657f 7bbd
000000d0: 64e2 4f3d 8048 8c3d c0e8 8e3d f5a5 dfbc
000000e0: da9e 153d 41ef 5e3d 84d5 fd3c 1140 83bd
000000f0: 1c81 5e3d 5061 69bd c409 363c 02a1 3d3c

temporal_blocks.1.norm1.weight f4 [64]
1.0061678 0.9991971 0.99476194 0.99311996 0.98218024 0.99043167 0.99362296 1.0026324
1.0086919 0.983366 0.97740763 0.9764234 1.0104593 1.0134578 1.0000288 0.98131883
1.0260649 1.0099661 1.0019383 1.0276756 0.9997979 1.008942 1.0071564 1.0036576
1.0114309 1.0113583 1.0364394 0.9908185 0.999341 0.99882674 1.0015774 0.9758709
0.99678874 1.0041876 1.0104645 0.9895349 0.999828 1.0022278 1.0004457 1.005207
0.95837295 0.9909472 0.9994137 1.0091771 1.0103142 1.0136954 1.0063618 1.0094833
1.0273979 0.99500215 0.98024493 0.9937414 0.97985137 0.9748291 1.0062692 1.0168872
1.002119 1.0040996 0.99632525 1.0172927 0.9848877 1.0017353 0.9948168 1.0022832
00000000: 1bca 803f 62cb 7f3f b8a8 7e3f 1c3d 7e3f
00000010: 2a70 7b3f ee8c 7d3f 135e 7e3f 4256 803f
00000020: d11c 813f e0bd 7b3f 6337 7a3f e2f6 793f
00000030: bb56 813f fcb8 813f f200 803f b637 7b3f
00000040: 1856 833f 9246 813f 843f 803f e08a 833f
00000050: c1f2 7f3f 0325 813f 80ea 803f da77 803f
00000060: 9176 813f 3074 813f 0caa 843f 48a6 7d3f
00000070: d0d4 7f3f 1cb3 7f3f b033 803f add2 793f
00000080: 8c2d 7f3f 3889 803f e756 813f 2952 7d3f
00000090: baf4 7f3f 0049 803f 9b0e 803f 9faa 803f
000000a0: ee57 753f b7ae 7d3f 94d9 7f3f b72c 813f
000000b0: fa51 813f c5c0 813f 77d0 803f c036 813f
000000c0: c681 833f 76b8 7e3f 55f1 7a3f d665 7e3f
000000d0: 8ad7 7a3f 668e 793f 6ecd 803f 5c29 823f
000000e0: 6f45 803f 5686 803f 2c0f 7f3f a636 823f
000000f0: 9a21 7c3f dd38 803f 50ac 7e3f d14a 803f

temporal_blocks.1.norm1.bias f4 [64]
0.0031400227 0.00041286668 0.0036444664 -0.0026597353 -0.007549113 -0.008041637 -0.0042674383 -0.0061348677
-0.005000669 -0.017545825 -0.015103704 -0.028296549 0.0030679358 0.00025090965 0.0036111213 -0.0065749814
0.002108344 -0.0070122015 0.011656304 0.0007547647 0.0030532978 -0.008475228 0.011985402 -0.01271332
0.00095634593 -0.0040522297 0.0044816937 -0.004530706 0.0058403485 -0.006602667 -0.0028794964 -0.0063480167
-0.008281003 -0.0108864205 -0.002387298 -0.010942441 -0.007814967 -0.0049899984 -0.009839661 -0.008710099
-0.046036962 -0.016514778 -0.04454398 -0.009499502 -0.0066692806 -0.011613386 -0.0052589774 -0.0066066147
0.008283625 -0.013786484 -0.016402533 -0.003425965 -0.026889306 -0.016650487 0.0017080101 -0.0030049563
-0.0033098592 -0.0031165585 2.3017323e-05 0.003018807 -0.03357556 -0.0089491 -0.013292842 -0.005001108
00000000: d7c8 4d3b 0776 d839 00d8 6e3b f44e 2ebb
00000010: 8d5e f7bb 12c1 03bc ded5 8bbb 0007 c9bb
00000020: a7dc a3bb 43bc 8fbc 8775 77bc 2ace e7bc
00000030: 6c0f 493b 868c 8339 90a8 6c3b f172 d7bb
00000040: 252c 0a3b 9cc6 e5bb 15fa 3e3c 67db 453a
00000050: d619 483b afdb 0abc 6b5e 443c 874b 50bc
00000060: 4ab3 7a3a 91c8 84bb 2cdb 923b 5176 94bb
00000070: 6560 bf3b 2f5b d8bb efb5 3cbb 0603 d0bb
00000080: 0bad 07bc f55c 32bc 3774 1cbb ed47 33bc
00000090: 590a 00bc 2483 a3bb 8836 21bc ceb4 0ebc
000000a0: 4191 3cbd 004a 87bc c073 36bd cda3 1bbc
000000b0: fb89 dabb 1246 3ebc 8053 acbb 4d7c d8bb
000000c0: 0bb8 073c b4e0 61bc 9b5e 86bc 2886 60bb
000000d0: f646 dcbc 9a66 88bc 4fdf df3a cdee 44bb
000000e0: 39ea 58bb 2d3f 4cbb 5315 c137 2dd7 453b
000000f0: 8786 09bd 3f9f 12bc 38ca 59bc 56e0 a3bb

temporal_blocks.1.norm2.weight f4 [64]
1.0085081 1.0221887 0.99398583 1.0216098 1.0110084 1.0164431 1.0281794 1.0147978
0.98782504 0.99153346 0.97316027 0.97580373 1.0083004 1.0094097 1.0004815 0.97563154
0.99509573 0.9459425 0.9934755 1.0075219 0.99259275 1.0150064 0.9987287 1.0154322
1.0039235 1.0019062 1.0188743 1.0022994 0.9988539 0.9898257 1.0160218 1.0028635
1.0024682 0.96952915 0.9693931 0.9997401 0.99700564 0.99830055 1.0009881 1.009553
1.0057414 1.0171937 1.0354623 1.0076174 0.99679506 1.0002427 1.0136684 0.99668205
0.97103184 1.0045999 0.97346205 1.0174704 0.98334575 1.0093669 1.0047653 0.999085
0.9824984 0.9733812 1.003109 1.0073189 0.98527724 1.0216545 1.031315 1.0171505
00000000: cb16 813f 14d7 823f db75 7e3f 1cc4 823f
00000010: b968 813f cf1a 823f 629b 833f e5e4 813f
00000020: 1ae2 7c3f 23d5 7d3f 0821 793f 46ce 793f
00000030: fd0f 813f 5634 813f c70f 803f fdc2 793f
00000040: 98be 7e3f 4a29 723f 6954 7e3f 7af6 803f
00000050: 8f1a 7e3f bbeb 813f afac 7f3f aff9 813f
00000060: 9180 803f 763e 803f 796a 823f 594b 803f
00000070: e4b4 7f3f 3865 7d3f 010d 823f d55d 803f
00000080: e150 803f 1033 783f 252a 783f f8ee 7f3f
00000090: c33b 7f3f a090 7f3f 6120 803f 0839 813f
000000a0: 22bc 803f 6733 823f 078a 843f 9bf9 803f
000000b0: f62d 7f3f f407 803f e3bf 813f 8e26 7f3f
000000c0: 8b95 783f bb96 803f cf34 793f 783c 823f
000000d0: 8cbc 7b3f ef32 813f 269c 803f 09c4 7f3f
000000e0: 0485 7b3f 832f 793f e065 803f d3ef 803f
000000f0: 213b 7c3f 93c5 823f 2102 843f fd31 823f

temporal_blocks.1.norm2.bias f4 [64]
-0.023402458 0.034476787 0.021696556 -0.016743416 -0.008138481 -0.027205147 0.03238151 0.00088533614
0.0070945164 0.0010796293 -0.0071683847 -0.020161003 -0.009643987 0.017798765 0.0026639274 0.024487378
-0.008658482 -0.010741943 0.04744542 -0.025038218 0.0031998204 -0.011655824 0.038316578 0.013291171
0.010922788 0.0010742273 -0.022250053 -0.011408435 -0.044344004 -0.004379208 0.009611863 0.007266923
0.00086963654 0.014415958 0.0038789597 -0.032369807 -0.0007752333 -0.03056552 0.002370689 -0.0018694148
-0.0007296155 0.00558398 0.021908607 -0.011414582 0.019404756 -0.018059812 -0.007219322 -0.016877212
-0.0044332137 0.002278675 -0.015851254 0.0050553307 -0.011975911 0.009008954 0.0085468795 0.010666541
-0.011867905 0.006100984 -0.016567444 -0.01799817 0.021699568 -0.009075181 -0.026456054 0.0095894495
00000000: 83b6 bfbc 8837 0d3d fabc b13c 7d29 89bc
00000010: 4357 05bc 54dd debc 79a2 043d e715 683a
00000020: 1e79 e83b 5982 8d3a c5e4 eabb b028 a5bc
00000030: d001 1ebc b7ce 913c 4995 2e3b c199 c83c
00000040: 4edc 0dbc f9fe 2fbc 2156 423d f31c cdbc
00000050: 14b4 513b 12f8 3ebc d8f1 1c3d 36c3 593c
00000060: 7ef5 323c 16cd 8c3a be45 b6bc 72ea 3abc
00000070: 0fa2 35bd 767f 8fbb 137b 1d3c 5e1f ee3b
00000080: 52f8 633a e930 6c3c 2536 7e3b 3496 04bd
00000090: 0739 4bba 8b64 fabc 905d 1b3b 2707 f5ba
000000a0: ab43 3fba d2f9 b63b ae79 b33c 3a04 3bbc
000000b0: b9f6 9e3c 2cf2 93bc 1090 ecbb 1442 8abc
000000c0: 7e44 91bb d355 153b 7dda 81bc 30a7 a53b
000000d0: 9d36 44bc 4b9a 133c 3608 0c3c b7c2 2e3c
000000e0: 9a71 42bc c3ea c73b 73b8 87bc e670 93bc
000000f0: 4bc3 b13c 11b0 14bc 5eba d8bc 111d 1d3c
