develop/output_improved/submission/improved_model_beignet.pth (torch, 297326 bytes, 28 tensors)

input_proj.weight f4 [64, 1]
00000000: 142c 4c3f 1b8a 603f 4e8f 92be 40ca 6f3f
00000010: 7998 60be c48c 683e eccf eabe f5a3 1b3f
00000020: 8cf5 6b3f a1a4 2fbf 2b88 683f 79fd 1f3e
00000030: 022f 3d3f 58dc 073e 243f f43e 8e4c 0bbe
00000040: 4372 4d3f c6ad 603e f008 f9be f05a 873e
00000050: 86d9 f7be b442 febd 58f3 c2be 0e84 263f
00000060: aac5 49bf 3038 e2be 8fdf 97be 5806 18bf
00000070: fe33 4f3d f77a 7bbf 252f 6a3f fa0b 62bf
00000080: eb3b 4b3f abd4 3f3e f1a9 adbe 892a 253f
00000090: 09f2 323e 55d0 573f ad17 063e ba5a a0be
000000a0: 2311 8b3e 4172 84be 6562 e23e feae 633f
000000b0: df53 213f 26c3 e8be 0d96 143f 94aa 133e
000000c0: 3aa4 083f f4a1 11bf d2b2 84bf 42d7 c9be
000000d0: 8366 4cbf 2518 553f 4430 983e eb4c f03e
000000e0: 830b b03e 118f 43ba 355d 4b3f 28d8 36bf
000000f0: e2aa 603d f70c 33bf c841 9f3e de0e b7be
0.7975476 0.8771073 -0.28624958 0.93667984 -0.21933164 0.22709948 -0.45861757 0.60797054
0.9217155 -0.6861058 0.90832776 0.15624036 0.73899853 0.13267648 0.47704422 -0.13603422
0.80252475 0.2194129 -0.4863963 0.26436567 -0.48408145 -0.12415066 -0.38076282 0.6504525
-0.78817236 -0.44183493 -0.2966275 -0.5938468 0.050586693 -0.98234504 0.91478187 -0.88299525
0.793883 0.1873347 -0.33918718 0.6451803 0.17475142 0.84302264 0.13094969 -0.3131922
0.27161512 -0.2586842 0.44215694 0.8893889 0.630186 -0.45461386 0.5804146 0.14420539
0.5337559 -0.56887746 -1.0367072 -0.3942204 -0.7984392 0.83239967 0.29724324 0.46933684
0.34383783 -0.0007459978 0.794391 -0.7142358 0.054850467 -0.6994166 0.31104875 -0.3575353

input_proj.bias f4 [64]
00000000: 2b44 9d3e c1f0 4ebe 3e4e 503f cd93 15bf
00000010: 6168 16bf 2172 14bf cc8b 643f e399 a93e
00000020: 5074 763f b128 53bf f112 7bbf ffca 47bf
00000030: d6cb 2abf 8fd4 d43e 16af b83e 7b1b 503f
00000040: 21da 02bf a963 2bbf 8173 053f 340f cbbe
00000050: dba0 153f 2369 6dbe a97f 123f cfcf 45bf
00000060: ea14 01bf bd6b 8d3e 2c1a 563e b4fc 81be
00000070: cd12 163f db62 2c3f 51fe 35bf 6c5a 07bf
00000080: 8565 673f e8b5 a8be ca2f b7be b6ac 73bf
00000090: bc0f 13bf 370e 783e ce1a 00be 6a82 3abf
000000a0: d514 eb3c ade6 2cbf 9575 54bf bf75 09bf
000000b0: f7cf 5bbf 6c21 27bf 8afc 803f 302c 2a3e
000000c0: a550 a33e 8701 71bf 91bb 26bf 67f9 aabe
000000d0: 7632 1d3e 49bf 5dbf 0650 dabe 1de7 15bf
000000e0: 61c6 263c d0d3 bcbe abbc 86bd d681 2cbf
000000f0: d2a2 2ebf f980 17bf c10a a7be 55b2 49bf
0.3071607 -0.20209028 0.8136939 -0.5842865 -0.5875302 -0.57986647 0.89275813 0.3312522
0.9627123 -0.82483965 -0.9807578 -0.7804412 -0.6671728 0.4156842 0.3607108 0.8129193
-0.5111409 -0.66948944 0.5212937 -0.39660037 0.5844857 -0.23184638 0.57226044 -0.77270216
-0.5042254 0.2762126 0.20908421 -0.2538811 0.5862244 0.6733834 -0.7109118 -0.5287235
0.9038928 -0.32951283 -0.35778648 -0.9518541 -0.57445884 0.24224173 -0.12510225 -0.72855246
0.028696457 -0.67539483 -0.82991916 -0.5369529 -0.85864204 -0.6528537 1.0077069 0.16618419
0.31897464 -0.94142956 -0.65129954 -0.33393404 0.1535128 -0.86620003 -0.42639178 -0.58555776
0.010179133 -0.3688035 -0.06578954 -0.67385614 -0.68217194 -0.5918117 -0.32625392 -0.7878774

temporal_blocks.0.conv1.weight f4 [64, 64, 3]
00000000: e2a3 083d 9f04 b4bb 48c1 9d3d c9c5 0fbd
00000010: f675 66bd 470a 883d 1f57 813b 52b6 c4bc
00000020: bff5 65bd 44fc f2bd 43fb cb3c b3b7 72ba
00000030: 7b6a a83c d489 85bd 93a7 383d a048 9fbd
00000040: 960b 82bc 62ef 403c ee4e 8b3d 132a 793d
00000050: 6a92 883d 9337 9bbd bc21 d93c 50cb 8dbc
00000060: 1414 54bc ef6e 3fbd 769a 9d3d 093e 4cbd
00000070: b814 013d 5022 6c3c 6bc2 69bc cef9 20bd
00000080: a662 8f3d fff6 babb 0ce6 ac3b b9fe 8abd
00000090: 31e0 2abc 4fdf 1cbc 011b c7bc 09e5 8e3d
000000a0: 2089 b23c 7d72 01bd 2ade 44bd c56b 8f3b
000000b0: 8168 583d 10ee e33a 0680 17bd 8296 a2bc
000000c0: e977 cdbd 8c28 f43c c0e8 8f3d 85d0 b9bd
000000d0: 0caf 553c a33c 073d 9f6f 4f3d 2733 cfbc
000000e0: 3f7a 083d c4e3 953b 3391 cc3c 5839 48bc
000000f0: 48c3 873c 3f30 0f3c d28d 75bc ace8 d6bc
00000100: 15b6 223d e434 583d db90 d93c b244 6bbc
00000110: 39b3 85b9 00c7 27bd 8777 883c f3a8 c33c
00000120: 88ce 4cbd c0dc 0dbd 6929 433d 5b6b 983d
00000130: 43d6 fcbb 0eee 6cbd 510b 213a b184 8abd
00000140: 4e6c 13bd bac2 493d 26ca 183d 0247 993c
00000150: 214c 4fbd 63af 1cbd 24f3 89bb f565 eb3d
00000160: 133f e13b 6905 04bd 8de6 56bc 740e cdbc
00000170: 7e0c 11bd 9747 8e3d 71f0 27bd cab8 e3bc
00000180: 1db3 99bd 2611 633d 4f61 863d 19c5 8ebb
00000190: 8219 5abd 8f3e 95bd 534d 5cbd 0a96 3e3d
000001a0: 20b5 bf3c ce53 e03c 2b1d 133d 2ba5 983c
000001b0: bfdb c2bc 3ee7 6fbd 8b78 86bd 2ab1 cfbd
000001c0: 1daf 1d3d 2b96 a1bc d6a4 58bd 321a 2bbd
000001d0: e8bb 22bc f595 68bd 2574 5abd f0df 743c
000001e0: 088c 94bd 3731 5a3d 702a cbbb 8ec9 75bd
000001f0: 719c 99bc c4d8 32bd 9974 56bd a413 92bd
00000200: 4c3c 1f3d 3290 c7bd e04e 263d 598f 433d
00000210: 2026 8e3c 195b 69bd 720c 583d a2c0 0dbd
00000220: 87fc a23c 75a4 6b3d 09ed fabb ea8a c13b
00000230: 12af e3bb 9784 82bd 3315 2a3d b626 78bd
00000240: ff42 e63c 83ed 7e3d 8146 a73d 37b6 98bc
00000250: 54e3 86bd a43a ce3b 8105 633d 63c9 a3bd
00000260: a579 f1bc 30a9 0abd cccc 60bc 2cc8 42bd
00000270: c546 ea3c 5037 e3bc 39fb adbd ea03 aa3c
00000280: fc2f 783d d0b6 bcbb b5db 2cbd a000 00bd
00000290: b612 84bd a986 d7bd 2a30 d03c 48f7 1cbd
000002a0: a795 d4bd 9d88 1d3b a964 d8bb ae0c 1fbd
000002b0: ecb0 27bb 138b b2bc 8ac9 afbd ab04 e8bc
000002c0: b1fb 2abd f071 8a3d 88bf 14bd f0fa f33b
000002d0: 299b 31bd dc76 b13a ebc1 7c3d 47fe 2c3d
000002e0: 74e6 8fbd 68fc 873c 74c1 f73c ba29 993c
000002f0: aa56 5a3d 03bf 853d 5674 8dbc 5a97 c63b
00000300: 3589 67bd 6251 213c be72 713d 7f42 f43c
00000310: d448 02bd 661c 84bd 6364 23bd 279a 88bd
00000320: e246 3abd 0697 e4bc 87a5 683d d90c a03b
00000330: 8ae5 70bd e992 90bd 462f cb3c 155d 81bd
00000340: e88c 52bc 8633 c83c e727 c0bc 2b9e c8bb
00000350: 18d4 623b d328 bbbc 812e 5cbc 041d 67bd
00000360: d6da 76bd 166c a6bc 7473 a43d bddd 0bbd
00000370: ac2a 87bd e927 e33b acda 143c 7c1f 2b3d
00000380: da1f 3c3d d140 013d 6de4 9dbd 798b 83bb
00000390: 1e2a 073d 6875 1ebb 566d 50bd 277f 953d
000003a0: 58b1 6cbc ba4b f6bc 329a 8dbd 5838 c43c
000003b0: 164e 293d 81a5 c73c 11ba a83c 9d09 35bd
000003c0: 3bfe 9ebd 87e5 133c d996 6f3d 8033 043d
000003d0: 6eca 40bd 87df a0bc 93e5 2dbd 337d 17bd
000003e0: fd4e b43c 4c62 ec3c 6fd4 723d 1749 9bbd
000003f0: 435d 713d 609a 54bd 4d71 143d 9c42 703d
0.033359416 -0.005493715 0.07702881 -0.035100732 -0.05626484 0.06642585 0.003947153 -0.024012718
-0.056142565 -0.11864522 0.024900084 -0.00092589407 0.020558586 -0.06520429 0.045081686 -0.07777524
-0.015874665 0.011775823 0.06802164 0.06083114 0.06668551 -0.07578959 0.026505344 -0.017308861
-0.01294424 -0.046736654 0.07695477 -0.04986385 0.0315139 0.014412478 -0.014267544 -0.039300732
0.070012376 -0.0057057138 0.005276447 -0.06786866 -0.010429428 -0.009574725 -0.024304869 0.06977279
0.021793902 -0.031603325 -0.048063435 0.004376861 0.052834038 0.0017389674 -0.036987327 -0.019847158
-0.10032637 0.02980449 0.070268154 -0.09072975 0.013042223 0.033016812 0.05064356 -0.025292946
0.033319708 0.004574271 0.02497158 -0.012220703 0.01657261 0.00873953 -0.014987426 -0.026233993
0.03972443 0.052784815 0.02655833 -0.01435964 -0.00025501268 -0.040961266 0.016658558 0.023884272
-0.05000165 -0.03463435 0.047646914 0.074423514 -0.0077159717 -0.057844214 0.0006143349 -0.0676359
-0.03599196 0.04925797 0.03730216 0.018710617 -0.05060971 -0.0382532 -0.004209893 0.11494056
0.006873974 -0.032231722 -0.013116491 -0.025031306 -0.035412304 0.069472484 -0.041000787 -0.027798075
-0.07504866 0.055436276 0.06561529 -0.004356992 -0.053246982 -0.07287323 -0.05378468 0.046529807
0.023401797 0.027383711 0.03591649 0.018633446 -0.023786424 -0.05857014 -0.065659605 -0.10141213
0.03849708 -0.019724926 -0.052891575 -0.04177303 -0.009932496 -0.056783635 -0.05333342 0.014945969
-0.07253271 0.05326959 -0.0062001273 -0.06000667 -0.018751355 -0.043663755 -0.05235729 -0.071326524
0.038875863 -0.097443 0.040602565 0.04774413 0.017352164 -0.056971643 0.052746244 -0.034607537
0.019895805 0.057529885 -0.0076576513 0.0059064524 -0.0069483602 -0.06372946 0.041524123 -0.060583793
0.028108118 0.062238228 0.081677444 -0.018641574 -0.06586328 0.0062936116 0.05542517 -0.07997396
-0.02947695 -0.033852756 -0.013720702 -0.04755418 0.028598199 -0.027736336 -0.084951825 0.02075382
0.060592636 -0.0057590976 -0.042201716 -0.031250596 -0.06448881 -0.10523731 0.025413591 -0.038321763
-0.103801064 0.0024037727 -0.0066037965 -0.03883045 -0.0025587631 -0.021794831 -0.085833624 -0.028322538
-0.041743938 0.06760013 -0.03631547 0.0074456856 -0.043360863 0.0013539451 0.061708372 0.042234685
-0.07026377 0.016599849 0.030243613 0.018696655 0.053305306 0.06530573 -0.017267387 0.006060523
-0.056527335 0.009846063 0.058947317 0.029816864 -0.031807736 -0.06450729 -0.039890658 -0.06670027
-0.045477755 -0.027904045 0.056798484 0.004884344 -0.058812656 -0.07059271 0.024802815 -0.06316582
-0.0128509775 0.02443863 -0.023456527 -0.0061223707 0.003461128 -0.022846615 -0.013438822 -0.056424156
-0.060267292 -0.020315211 0.080298334 -0.034147013 -0.06599936 0.006932248 0.009085339 0.041778073
0.045928814 0.031555954 -0.077095844 -0.004014429 0.03299915 -0.0024178866 -0.05088552 0.07299643
-0.014446579 -0.030065406 -0.06914176 0.023952648 0.041334234 0.02437091 0.020596536 -0.04419862
-0.07763334 0.009026892 0.05849347 0.032275677 -0.047068052 -0.019637836 -0.042455267 -0.036984634
0.02201032 0.028855465 0.059284624 -0.075823 0.058926832 -0.051905036 0.036240865 0.058657274

temporal_blocks.0.conv1.bias f4 [64]
00000000: 3a4e 973d b712 9c3d 47fb 66bd deaa 033a
00000010: c43b 70bd a014 2f3b 002a 123c 014e 15bd
00000020: 13d3 d03c e4ad afbc d106 293d 7493 c83b
00000030: 3da9 383d e73a 4d3d eca9 8e3c 4027 743c
00000040: d22d 05bd 4c19 17bd 16a3 543d 5e3e 3c3d
00000050: 2875 c83c fab0 803d 8981 2b3d dd27 303d
00000060: 4107 9dba 5428 933c dd88 39bd 485f 98bd
00000070: 142e 433d 0a0e 0bbd ee93 6e3d 32d8 7bbd
00000080: 17ae 30bd f979 7abd 6006 643d 9064 2cbd
00000090: 2d25 5bbd 13a7 0a3d 2626 58bc 1c5e 89bd
000000a0: 34c9 4c3d 1f05 843d 714c 7e3d 2c02 513d
000000b0: 9e01 74bd 1cca 04bd 627b ebbc d9ab 8fbd
000000c0: 88f9 8f3d b753 e3bc 8fb6 cf3c 5380 2dbd
000000d0: 0346 7e3d 1732 633d 435d 873d 7e74 203d
000000e0: 535e ac3d a946 003d f616 0d3d be0f 92bc
000000f0: 89ac 803d d03d 7dbd e5a4 313d 4f65 54bb
0.073879674 0.07620757 -0.05639198 0.00050227146 -0.058650747 0.0026715174 0.008921146 -0.036451343
0.025491273 -0.021445222 0.041266266 0.0061210934 0.045083273 0.050105 0.01741501 0.014901936
-0.0325144 -0.03688936 0.051913343 0.045957915 0.024469927 0.062837556 0.04187158 0.043006767
-0.0011980311 0.017963566 -0.04529654 -0.074400485 0.047651365 -0.033948936 0.058246545 -0.061485477
-0.043134775 -0.06115148 0.055670142 -0.04208809 -0.05350225 0.03385074 -0.013192689 -0.06707403
0.04999657 0.06446289 0.06208462 0.051027462 -0.059571855 -0.03241931 -0.028745357 -0.07015199
0.07030016 -0.02774988 0.025355605 -0.042358708 0.062078487 0.05546769 0.06609585 0.039173596
0.084164284 0.031317387 0.034445725 -0.017829772 0.062829085 -0.061826527 0.043370146 -0.0032409017

temporal_blocks.0.conv2.weight f4 [64, 64, 3]
00000000: 065a 8cbb af93 f9bc 189c 08bd 33df 03bc
00000010: bdfc 17bb 740c 0d3d 3e01 683c 36a3 87bd
00000020: 5cb7 223d 6e2e 61bd 55a3 04bc c50d fdbb
00000030: 3446 0f3c dffa 50bd d2aa 99bc d1cf 123d
00000040: b011 60bc f1f0 06bd 4804 68bd d6b8 1d3c
00000050: 489d 213d a94b b53c 01ea 853d 1320 cb3c
00000060: 934e 933c 5e15 6e3d 337c e83b 2141 4f3d
00000070: b71d 223d f836 2e3c dc39 c63c 62b0 533c
00000080: 45bf 583c 7048 793d 8a2a 323d ac0e 45bd
00000090: 6c9f 91bd 167c 193d ef16 11bd 4b85 9dbd
000000a0: fd54 d73c 390b 8fbd 051e 633d d329 3bbd
000000b0: 5940 39bd a0b7 5a3d 0b57 893c ed25 4bbc
000000c0: f1db 373d 2480 52bd ee87 2dbd 104b 60bd
000000d0: 10e0 45bd 497a 83bd f44a 8e3d 3195 88bc
000000e0: 87ce 123d 4e9f 52bb 8e3d 3dbc 99bc 533d
000000f0: 2716 bc3c 72ca cf3c f338 1f3d 2d28 5ebd
00000100: 072c 6d3d 03a9 763d e77c c638 bd33 7e3d
00000110: 3b5d d6bc 6272 423c 2880 f0bc 4850 1a3c
00000120: 65ca b6bb 1771 40bd b527 29bd cdea 1cbd
00000130: 50b3 493d ff4c 0d3b cdbd 2f3d 2761 b3bb
00000140: 6655 db3c 9613 c93c 067a 91bd e48d c6bc
00000150: e447 efbc f736 973d cc14 a43c 0da5 4a3c
00000160: dfc7 36bd 24bc 123d 98c4 433d ad59 3fbd
00000170: 22f0 9abd f181 f3b9 71fb 023c 9887 82bd
00000180: e60b 4f3a 45b0 203d 303e 3f3d 0711 a63c
00000190: 789f 5cbc 7225 963c 47dc 2c3d 3914 a23c
000001a0: 89db dbbb 22ab 433d a474 093d dc80 7abd
000001b0: f618 eebc aa3a 4e3d 403a 8a3c 8856 15bd
000001c0: ac37 8a3c 45a5 5ebd 14fd 1bbd 4bab 7a3d
000001d0: 757f c63b fac7 b1bc f7db 083d eb8f c8b9
000001e0: 2800 f1b9 f7c2 82bd 374d c4bc 5be9 c63c
000001f0: 8bdc 19bd 9194 74b6 d439 5bbd c188 4a3d
00000200: 5e24 9d3d 54a7 8c3d e00b 55bb 67fd c2bd
00000210: d3ce ecbc 7730 0f3b efb2 9cbd f516 8f3d
00000220: 1777 f33b 5138 743d 0d1e 42bd d227 2cbd
00000230: d845 e43b 65e1 da3c ba54 26bd 8e55 ce3c
00000240: 9853 283c c2c9 64bc e216 6d3d 0e4a fcbc
00000250: 643e 51bd dd62 8e3c e89c b43d 1068 fd3c
00000260: 71ec 49bd 653f 493d 8686 223c 9b08 89bc
00000270: 7d0b 8e3d 1a37 983c 7b92 5cbc 126d d1bc
00000280: 7aac 673b fbf3 bcbc baad 113c f861 a4bd
00000290: 13d1 243c 61af da3c 2f2f 3abd deb9 32bd
000002a0: 8c57 953d 3281 ebbc 563c 34ba 08ed 02bd
000002b0: a933 b2bc 000c 1a3d 10cf cf3c 33b0 0c3d
000002c0: a205 dbbb 2215 b0bd 92dc 5fbc 0039 243d
000002d0: 1757 c53c d9d3 383d d5c2 383d 3326 723d
000002e0: 98b0 243d 2ec2 07bd 90ef 07bd c3f7 573d
000002f0: 7b2e 33bd bcb6 4abc 09e4 273d 177f 04bd
00000300: 6cef 99bd 02f3 4cbd 0c7b 243d f2ca 8bbd
00000310: 581d 963d 850f 7eb9 d578 3fbd a8fe 22bd
00000320: cb26 1abc 58b1 8ebb da33 23bd 4ec3 79bd
00000330: ec62 afba c3b3 863c 66e4 8ebd 7e72 65bc
00000340: fcab 5c3d df21 10bd d23f 403d cb95 3bbd
00000350: 742a 99bd f897 d0bc 6e58 9a3d 0a78 1c3d
00000360: f6b8 a63d 3c9c e13c e9f6 763c 9289 0b3d
00000370: 41c4 6c3d 5a79 763d 3a30 25bd 05f4 9e3a
00000380: c3aa 4b3c d538 52bb 5b47 143d f9f4 ef3b
00000390: f521 29bc 5cd8 babc b078 643d 75e3 ca3b
000003a0: faec 0cbd 268e 8ebc 7e5b bf3b 4fcc 8f3c
000003b0: 38db 963d 77d1 c1bb e527 21bc 6adc b73c
000003c0: 8045 7d3d 23de 23bd 2677 4dbd 682a b13d
000003d0: 0b9a a73b 6638 9b3c b127 9abd 2185 64bd
000003e0: 53ee 7e3c 4308 813d a16c 9ebd c030 babd
000003f0: e3aa d1bc c967 7f3d 903c 1cbd 8033 cdbb
-0.0042831926 -0.030465929 -0.033351988 -0.00804882 -0.0023191415 0.034435704 0.014160452 -0.06622927
0.039725646 -0.05497592 -0.008095582 -0.0077225887 0.008744765 -0.0510205 -0.018758211 0.03584272
-0.013676092 -0.032944623 -0.056644708 0.009626588 0.039456636 0.022130804 0.06538773 0.024795568
0.017981803 0.058125846 0.007094884 0.05059922 0.03957912 0.010633223 0.024197511 0.012920471
0.013229196 0.060860097 0.0434976 -0.048109695 -0.071104854 0.037471853 -0.03542226 -0.07691439
0.026285643 -0.069845624 0.05544855 -0.045694184 -0.045227382 0.053397775 0.016765138 -0.012399179
0.044887487 -0.051391736 -0.04236596 -0.054759085 -0.048309386 -0.064198084 0.0694789 -0.016672703
0.03584149 -0.003213841 -0.01155032 0.051693533 0.022959782 0.025365088 0.03887267 -0.054237533
0.057903316 0.060219776 9.4646406e-05 0.06206106 -0.026167503 0.011868091 -0.029357985 0.009418555
-0.0055783265 -0.04698285 -0.041297633 -0.03830986 0.04924327 0.0021560786 0.042905618 -0.005474228
0.02677412 0.024545472 -0.07103352 -0.02423758 -0.029209085 0.073835306 0.020029448 0.012368453
-0.044624206 0.035823956 0.04779491 -0.04671638 -0.07565333 -0.00046445386 0.007994519 -0.06373519
0.00078981963 0.039230604 0.046690166 0.020271791 -0.013465755 0.018328402 0.04220226 0.019785034
-0.0067095202 0.047770627 0.033558503 -0.061158046 -0.029064637 0.050348915 0.016873479 -0.036459476
0.01687225 -0.054356832 -0.03808315 0.061198514 0.0060576745 -0.021701802 0.0334129 -0.000382542
-0.00045967218 -0.06384843 -0.0239626 0.024281194 -0.03756384 -3.644531e-06 -0.053521946 0.049446825
0.07672952 0.06867853 -0.0032508299 -0.09520989 -0.028907215 0.0021848956 -0.076513164 0.069868006
0.007429968 0.05962402 -0.04739194 -0.042030163 0.006966334 0.026718805 -0.040608145 0.02518728
0.010273837 -0.013964118 0.05788315 -0.03079703 -0.05108489 0.017381126 0.0881899 0.03093341
-0.049297754 0.049132723 0.009919768 -0.016727736 0.06935785 0.018580962 -0.013462658 -0.025564704
0.0035350607 -0.023065558 0.008891517 -0.080264986 0.010059613 0.026694955 -0.045455154 -0.043634288
0.07292089 -0.028748129 -0.0006875446 -0.031964332 -0.02175315 0.0376091 0.02536729 0.034347724
-0.006684021 -0.08597781 -0.013663428 0.040093422 0.02408938 0.04512391 0.04510768 0.05911846
0.040207475 -0.03314417 -0.03318745 0.05272652 -0.0437455 -0.012372669 0.040988956 -0.032347765
-0.07516369 -0.050036438 0.04015641 -0.06825818 0.073298156 -0.00024229109 -0.046746094 -0.03979364
-0.009408663 -0.004354637 -0.03984437 -0.060977273 -0.0013380921 0.016443139 -0.06977157 -0.014004348
0.053874955 -0.035188552 0.046935864 -0.04579715 -0.074788004 -0.02546309 0.07536398 0.038200416
0.08140747 0.027540319 0.015073516 0.034066744 0.05780435 0.060174324 -0.040329196 0.0012127167
0.0124308495 -0.0032077332 0.036200862 0.007322904 -0.010323037 -0.022808246 0.05577916 0.006191666
-0.034405686 -0.017401766 0.005839764 0.017553477 0.073660314 -0.0059148627 -0.009836172 0.022443969
0.06183386 -0.040006768 -0.050162457 0.086506665 0.005114799 0.018947791 -0.07527102 -0.055791024
0.015559751 0.06300404 -0.07735563 -0.090913296 -0.02559418 0.062354837 -0.038143694 -0.006262243

temporal_blocks.0.conv2.bias f4 [64]
00000000: e10f 2d3d 3bec a73c 4f8b 1c3d 9d7d 6bbd
00000010: 7681 f33a 1a98 803d f71f 583c 1690 ae3d
00000020: ec13 80bc 7bf5 aabc 4b55 273d bf94 853c
00000030: 365e 433d d7e8 ae3d 0ffe 143d d9fa 923c
00000040: 297f 343d 93b3 963d f4dc 83bd ef7d 803d
00000050: cbab 0e3d d3b6 033d ab41 52bd 16b8 5d3d
00000060: cc9f 973c 1a6c 9a3c f707 99bd a297 5e3d
00000070: 197e cebd 6f6b bf3c 8c78 cd3d ffd9 263d
00000080: e634 2dbd 595b bfbc 3a17 09bd 6ae9 22bd
00000090: 741f 7dbd bb6a 1a3d e0ce 753d 9297 a5bc
000000a0: 817d aa3c f088 b53c 1952 423b 51b6 4e3d
000000b0: e7e6 16bd a5a0 16bd d60d a73c 0f69 5bbc
000000c0: 2ac6 0b3c 4dda 0f3c 46e6 d13c e177 3cbb
000000d0: c6f6 523d a40c 173d c34c abbc 3217 1bbd
000000e0: b538 0f3d f249 89bb a132 133d 24e7 7a3c
000000f0: e9db b93b af11 a13c 15aa 483d e402 66bc
0.04225147 0.020498386 0.038218793 -0.05749284 0.0018578011 0.06279011 0.013191215 0.08523576
-0.0156345 -0.020869007 0.040852826 0.01630628 0.04769727 0.085405044 0.0363751 0.01794188
0.044066582 0.0735847 -0.06438628 0.0627402 0.034831803 0.032156777 -0.051332157 0.054130636
0.018508814 0.018850375 -0.07472222 0.054343827 -0.10082645 0.023366658 0.10032758 0.04073524
-0.042286776 -0.023358988 -0.033469416 -0.039773382 -0.061797574 0.037699442 0.060011744 -0.020213876
0.020811798 0.022160023 0.0029650985 0.05046684 -0.0368413 -0.036774296 0.02039234 -0.013391747
0.008531133 0.008780074 0.025622498 -0.0028757977 0.051504873 0.03687729 -0.020910626 -0.037863918
0.03496619 -0.004189723 0.035936955 0.015313897 0.0056719673 0.019661753 0.048990328 -0.014038775

temporal_blocks.0.norm1.weight f4 [64]
00000000: d398 813f f7d6 823f 850a 803f bc21 803f
00000010: 1120 853f db62 7c3f 46fd 803f 680e 843f
00000020: a0ff 7c3f 62a4 813f b035 873f 14bd 7e3f
00000030: 39ec 7e3f db87 7e3f 5451 823f a468 7e3f
00000040: 8601 803f a532 803f 734f 7c3f 4cb9 813f
00000050: e1bf 863f 1697 863f 91bb 823f b18b 863f
00000060: 905e 7f3f 8c54 813f 341e 813f 69ab 833f
00000070: 3f3c 803f 1e2b 843f 35ff 7f3f 6b59 7f3f
00000080: 6177 803f f04f 823f 52f0 7e3f 9ef7 813f
00000090: 776d 7a3f 8d47 813f 6952 7f3f 050a 7e3f
000000a0: 91a3 7a3f a370 783f beac 813f 8cf2 813f
000000b0: 14e8 813f 4393 7c3f 815b 7f3f e5c6 823f
000000c0: f7df 813f 166e 803f 341e 7e3f aec7 803f
000000d0: 7323 803f fc9c 7f3f 7054 7c3f 1f2c 7f3f
000000e0: 508d 803f 9351 7e3f b731 813f 1685 803f
000000f0: 6ae4 853f 2d9d 813f 763c 7f3f c385 833f
1.0124763 1.0221852 1.000321 1.0010295 1.0400411 0.9858834 1.0077293 1.0316896
0.9882755 1.0128291 1.0563259 0.9950726 0.995792 0.9942605 1.0181069 0.9937842
1.0000465 1.0015455 0.9855873 1.0134673 1.0527307 1.0514858 1.0213491 1.051138
0.99753666 1.0103927 1.0087342 1.0286685 1.0018386 1.0325658 0.9999879 0.99745816
1.0036432 1.0180645 0.9958545 1.0153692 0.9782328 1.009996 0.9973512 0.9923404
0.9790583 0.9704687 1.0130842 1.0152144 1.014895 0.98662204 0.99749 1.0216948
1.0146474 1.0033596 0.99264836 1.0060937 1.0010818 0.99848914 0.9856634 0.996767
1.0043125 0.9934322 1.0093297 1.0040615 1.0460331 1.0126091 0.9970163 1.0275196

temporal_blocks.0.norm1.bias f4 [64]
00000000: 7817 853a e392 d0bc 3168 7d3a 9358 eabb
00000010: a62d 98bb 52c3 9fbb c3d5 d9bb 169d a6bc
00000020: 2a4b 7ebc 60d3 36bc 5510 05bd 0b26 85bb
00000030: 21de 9bbc 9b6a dbba 90d3 8bbc 1fbc 8aba
00000040: 34a1 74bb e67b 9fbb 7b5d 8bbc 021a 36bc
00000050: 20b4 ce3a 8b4a 9ebc 35c7 b5bb daf9 2cbb
00000060: 63ac dabb 5f23 0ebb bda8 df3a ec9f f0bc
00000070: 2316 033c 439c fa3b 91c9 14bc f3b5 78bb
00000080: 32fb 323c b91f 323a c143 04bc 9342 7bbc
00000090: 370e 27bd 7b6b 7d3a 4a2d 1fbc 4bcf 85bc
000000a0: 2f60 8dbc bc14 40bc c0be 0bbc 15fe c2ba
000000b0: 74f7 0fbb 9ec4 6ebb 392d 18bc 20cd ecba
000000c0: ef93 5bbb 7482 413b 3601 02bb 2bee f2ba
000000d0: adfb b2bc e01d febc fca5 2fbc ce13 f6bb
000000e0: 1adf 733b b5b5 33bc 2dc4 0ebc 0bca 86bc
000000f0: 4a9a fcbb 09fa 52bb fb4d f6bb 65f2 b4bb
0.0010154089 -0.025460666 0.000966671 -0.007151672 -0.0046441136 -0.004875579 -0.006647797 -0.020338576
-0.01552085 -0.011158794 -0.03248628 -0.004063373 -0.019026818 -0.0016740145 -0.017068654 -0.0010584629
-0.003732753 -0.0048670648 -0.017012348 -0.011114599 0.0015770234 -0.019322654 -0.005547429 -0.002639404
-0.006673382 -0.0021688563 0.0017063838 -0.029373132 0.008000883 0.0076480224 -0.00908126 -0.0037950247
0.010924147 0.0006794888 -0.008072794 -0.015335697 -0.04078504 0.00096672 -0.009715388 -0.016334197
-0.017257778 -0.011723693 -0.008529365 -0.0014876748 -0.0021967562 -0.003643311 -0.009288126 -0.0018066503
-0.0033504923 0.002952722 -0.0019837148 -0.0018534114 -0.021848524 -0.031020105 -0.010720726 -0.007509685
0.0037211836 -0.010968615 -0.008713764 -0.016453763 -0.0077088224 -0.003219249 -0.00751662 -0.0055220597

temporal_blocks.0.norm2.weight f4 [64]
00000000: a0e3 793f 846f 7e3f 70f2 813f 6f46 803f
00000010: cad9 7b3f 3d99 813f c942 7e3f f5de 763f
00000020: 1a42 803f ab28 813f 3934 803f b5fc 7d3f
00000030: 33fb 7b3f 42c7 7b3f 6473 7e3f c1d8 733f
00000040: bf90 7c3f 2548 813f 1aef 7b3f 6d98 7f3f
00000050: 02f7 7e3f 84c9 7f3f a01f 7b3f 1bec 773f
00000060: cd7d 7f3f 2c3f 823f 3f19 7d3f 37d2 7d3f
00000070: 500d 803f 2f22 7a3f 8176 793f 3158 803f
00000080: a1c4 793f 9744 7d3f a8e4 7c3f d7f5 7b3f
00000090: 2df5 783f 6d9c 7e3f 9d17 7e3f 650a 813f
000000a0: 5fed 803f c4fb 7b3f 41ef 803f e2a9 7f3f
000000b0: ff1b 823f 89e6 803f c573 803f 49f6 7c3f
000000c0: 1610 7f3f 38e6 803f 179f 7c3f 2e5a 803f
000000d0: 58e1 803f 88b3 7e3f 42b4 813f f9ee 783f
000000e0: a237 803f 7678 813f 4a23 7b3f 2746 753f
000000f0: e8f3 7a3f dee2 793f 2c56 763f 4f2b 803f
0.97612953 0.9938891 1.0152111 1.0021495 0.98379195 1.012489 0.99320656 0.96433955
1.0020173 1.0090536 1.0015937 0.99213725 0.98430175 0.9835092 0.9939482 0.95252615
0.98658365 1.0100142 0.98411715 0.9984196 0.99595654 0.99916863 0.9809513 0.96844643
0.9980133 1.0175529 0.9886665 0.9914889 1.0004063 0.9770841 0.9744645 1.0026914
0.97565657 0.98932785 0.987864 0.98421997 0.9724911 0.99457437 0.9925478 1.0081297
1.007244 0.9843104 1.0073014 0.99868596 1.0164794 1.0070354 1.003533 0.988133
0.9963392 1.0070257 0.9868025 1.0027521 1.006877 0.9949269 1.0133135 0.97239643
1.0016978 1.0114887 0.9810072 0.9581017 0.9802842 0.97611797 0.9622524 1.0013217

temporal_blocks.0.norm2.bias f4 [64]
00000000: 586d 9d3a c7c3 013a 3b9d 0e3c e468 583c
00000010: 76b2 073b a5c6 de3a d70d 9dbb 40e2 413b
00000020: 46a2 90bb 837a edbc 3cfa 8b3b e654 483c
00000030: 9dc6 083c f7d0 1b3c 4965 a7bb 00e0 79bc
00000040: cae4 4a3b cdee 6c3b c888 f938 fe0b f63b
00000050: 6052 6ebc d453 45ba f05b c4ba 2e23 51ba
00000060: eabd d4bb 6aef 01bc 9e27 8d3b df74 8ebb
00000070: 9d02 7bbb 4430 6fbb 38e7 793c 726e ab3a
00000080: 80ef 98bc df65 263a cd9c a33b ab09 8b3b
00000090: 216d 10bc 0ce4 a83a cd5e 95b8 8c3e d1ba
000000a0: 5c13 b8ba 9985 1b3c b360 973c 5cbc 8b3b
000000b0: f630 e0ba 8400 76bc 4039 433b ac1e 27bc
000000c0: 2930 e03a a981 a4bc f50c 043c 6b69 213b
000000d0: 6117 783c e0be f33b 4660 e83b 010b 133c
000000e0: 1d5a e5bb 6000 863a 0736 01bc 2e98 5d3b
000000f0: b1d3 133b beeb 0aba 6a95 a2bb e31b 39bb
0.0012010736 0.00049501326 0.008704479 0.013208602 0.0020705736 0.0016996457 -0.0047929096 0.0029584318
-0.0044138758 -0.028989082 0.0042717736 0.012227273 0.008348134 0.00951027 -0.0051085097 -0.01525116
0.0030959123 0.0036153079 0.00011898723 0.007508754 -0.014546007 -0.0007527445 -0.0014981013 -0.00079779595
-0.006492366 -0.007930616 0.0043077013 -0.004347428 -0.0038301118 -0.0036497274 0.015252881 0.001307918
-0.01866889 0.00063475774 0.0049930573 0.004243096 -0.008815081 0.0012885346 -7.122532e-05 -0.0015964075
-0.0014043855 0.009492301 0.018478727 0.0042643975 -0.0017104435 -0.015014771 0.0029788762 -0.010200184
0.0017104197 -0.020081358 0.00805973 0.0024629484 0.015142293 0.0074385256 0.007091555 0.0089747915
-0.0069992677 0.00102235 -0.007886416 0.003381263 0.0022556598 -0.00052994105 -0.004961659 -0.0028245382

temporal_blocks.1.conv1.weight f4 [64, 64, 3]
00000000: b2b3 1c3d ea87 74bc cb89 f43c e9c7 87bd
00000010: a6f6 3f3d 2dc7 d73c bd62 563d 75d4 8d3d
00000020: 864b 9cbb f13c a6bc 68d4 363c 0e4b 9c3d
00000030: e6e2 933b 4a2f 8bbc bb81 99bd 9023 863d
00000040: 6e75 203d d1f4 c2bd 9cc0 90bd e766 02bd
00000050: 5399 543c c1f5 08bc b91f 933d 39d2 fdbb
00000060: 1404 573b 1bad 483d fd04 85bc 10a4 5b3d
00000070: dbb2 91bc 38e3 3bbd b860 20bc 68dc 15bd
00000080: 35be f73d a3eb 413c a050 413d 852b 353d
00000090: 30d8 40bc 2e09 cb39 4df0 f33c 8e63 16bd
000000a0: 996e 193d c411 34bd 558f c63c f6aa 333d
000000b0: f3f2 6b3d c498 2f3d 5956 f33c 04d4 a73d
000000c0: d27e 12bd 3df4 6bbd c0f5 5bbd fb8a 203d
000000d0: bb2d c33c 0155 4cbd 74ce f23b 5e9d 033d
000000e0: 5664 eabd fe3e 113c bd8f 69bb 338c f13c
000000f0: c0a0 89bd b43a 033c 0d82 f1bc cbd2 713d
00000100: daf9 543d 777d f9bc c22f 933d 3cb1 84bd
00000110: db17 e1bb c578 853c 6844 febc fb1e 403d
00000120: e043 753d 06d0 9bbd 18d4 e3bd ccd7 2c3d
00000130: 74ec 263d 51ef b4bd fe44 41bd 1ddb 273d
00000140: a15d a33d 77c2 213d 4c17 5e3d 90f1 773d
00000150: 7ea2 183d beb6 9bbd 9bbf 4d3d a5d6 c8bc
00000160: 77a2 8dbd 3841 55bd 43e8 37bd b76f 67bd
00000170: d9eb 543c 193a 263d 8eb8 61bd 7e3e 94bd
00000180: 4c39 1a3d 1e19 253d a570 7c3d ec6c d6bc
00000190: 3801 203c c5c3 aebd 4919 2f3d 15e6 e83c
000001a0: f652 97bd f7cf 783c 44a2 8c3d 18f2 f2bc
000001b0: bd5f ff3c 8c9c 84bc f57f 71bd 436c f93c
000001c0: fb71 983d 17d4 e23d 9f34 893c f421 433c
000001d0: c137 ba3c 2056 4a3d 79df e3bc 5608 d0bc
000001e0: c118 68bc 7c32 50bc 1f46 9e3d 22b9 843c
000001f0: 5895 e9bb 39ee 0ebd d31b 253d a2b6 073d
00000200: 81b5 dd3c f712 57bc eb8a c03a 7b19 90bd
00000210: 88e8 3bbd 72dc 8ebd c7f3 b23b caf8 24bd
00000220: 2c98 6cbd 68c7 d7bc ae27 9ebd c5d7 a5bd
00000230: 8944 4b3d 1648 29bc 9ac1 3bbb 67c4 f2bc
00000240: 8282 3d3d 5d14 723d e16a a53d e9f5 143d
00000250: c917 8e3d 1203 e2bb 7ae1 80bd 8323 4cbd
00000260: eb0a 5b3d 5bb6 52bd 5d04 95bc 85e9 a13d
00000270: 8ce3 933d 68f9 e03c 6760 b73d 04d7 493c
00000280: 2195 7a3d f2be 92bb 56e0 853d 26f8 e7bc
00000290: d825 d23d 3f44 6cbd 0d27 6abd 993d 293c
000002a0: ce1f 553c 400c 853a 7f6b 9dbd 9d11 b8bc
000002b0: 3889 763d 72ff 153e 662a d53c 83ec 323c
000002c0: af3b 5abd df75 6b3d 9656 c1b9 bc60 6fbc
000002d0: d640 813c 66d8 653d 6f07 3f3d 7170 7bbd
000002e0: 295f acbb 722a 05bd ed36 f1bc ed10 cfbc
000002f0: 1b00 40bc f300 603d 545b 63bd c1a6 f6bd
00000300: b6c9 96bc 1977 52bd 90ec 01bd 1be9 f2bc
00000310: 2881 8e3d 176a 6cbd db4d 1f3d 5ffe 9ebc
00000320: a572 103d 6019 1dbd 6f2d fa3c 79f4 823b
00000330: 47c6 363d ba40 bfbc c16d 903c 625d 9a3d
00000340: 4af1 783d a8c9 98bc 5aed 1a3c c40e 5b3d
00000350: 007d 583d 8f00 93bc 850f 52bc 86da 413d
00000360: f0d2 4fbd 566c 38bc 762c df38 f372 6bbd
00000370: 1df9 fabc c9d0 90bd e216 bfbc b2b0 81bd
00000380: 22ec 103d e872 80bc 7d74 e8bb a448 2c3d
00000390: 1736 4bbd 8bcf 2eb9 0fdb 69bc 2561 aabc
000003a0: f97a 503d 2f2d 1d3d 7e12 7abd 7126 b0bc
000003b0: 3be4 adbc ed1d 21bc fab8 b4bb 8691 d3bb
000003c0: 359b 82bc bc6d 103c 2b33 fa3c 5ca3 a9bc
000003d0: 9552 9fbb 131d 293d f623 443d 4a2b 97bb
000003e0: 9c35 72bd 5f00 15bd ab60 4cbd 872f 593d
000003f0: a576 55bd c9a2 49bd f7e7 0d3d 215e 5f3d
0.03825731 -0.014924983 0.029850861 -0.06629927 0.04686608 0.026340092 0.052340258 0.069252886
-0.0047697453 -0.020292731 0.01115904 0.07631503 0.0045131324 -0.016990323 -0.07495447 0.06549752
0.03917449 -0.09519351 -0.07067987 -0.031836417 0.0129760085 -0.008359374 0.07183785 -0.0077460078
0.0032808827 0.04899321 -0.01623773 0.05362326 -0.01778548 -0.04587099 -0.009788685 -0.03658715
0.12096826 0.011835965 0.04719603 0.044230957 -0.011770293 0.00038726017 0.02977767 -0.036716036
0.03745899 -0.043962255 0.024238268 0.043864213 0.05760474 0.042870298 0.02970426 0.08194736
-0.035765477 -0.05760597 -0.053701162 0.039195042 0.023825517 -0.049885754 0.007409865 0.0321325
-0.11444919 0.008865116 -0.0035638653 0.029485798 -0.06720114 0.008009601 -0.029480958 0.05903892
0.05199609 -0.030455334 0.071868435 -0.06479117 -0.006869299 0.016292939 -0.031038478 0.046904545
0.059879184 -0.07608037 -0.11124438 0.042197987 0.040752843 -0.088347085 -0.047184937 0.040980447
0.07976843 0.039492097 0.054221436 0.060533106 0.03726434 -0.07603215 0.050231557 -0.024516413
-0.06915753 -0.05206415 -0.044899236 -0.056503024 0.012995684 0.04058275 -0.055107646 -0.07238482
0.0376523 0.040307157 0.061630864 -0.026174985 0.009765916 -0.08533434 0.042748723 0.028430024
-0.073888704 0.015186301 0.06866887 -0.029656455 0.031173581 -0.016187929 -0.05895992 0.030447131
0.07443615 0.11075609 0.016748725 0.0119099505 0.022731664 0.04939854 -0.027816521 -0.0253946
-0.014166058 -0.012707349 0.07728218 0.01620156 -0.007128399 -0.034895156 0.04030974 0.033133157
0.027064087 -0.01312708 0.0014689838 -0.0703611 -0.045876056 -0.0697564 0.0054611894 -0.040276326
-0.05776231 -0.026340201 -0.07722412 -0.080977954 0.049625907 -0.010332128 -0.002864933 -0.029634668
0.04626704 0.05910145 0.08077026 0.03636733 0.069381304 -0.0068973387 -0.06293006 -0.049838554
0.05347721 -0.05144344 -0.018190557 0.079058684 0.072211355 0.027462676 0.08953934 0.01231933
0.061177377 -0.004478329 0.06536929 -0.028316569 0.10261124 -0.057682272 -0.057166148 0.010329627
0.013008071 0.0010150746 -0.07686519 -0.022469336 0.060189456 0.14648226 0.026021194 0.010920647
-0.053279575 0.057485458 -0.0003687634 -0.014610466 0.015777986 0.056114577 0.04663795 -0.06138653
-0.0052603674 -0.032511182 -0.029445136 -0.025276626 -0.011718775 0.054688405 -0.05550702 -0.120435245
-0.01840673 -0.05138311 -0.031719744 -0.029652169 0.06958228 -0.057718363 0.038892608 -0.019408403
0.035265584 -0.038354278 0.030539243 0.0039964286 0.044622686 -0.023346294 0.01763046 0.075373426
0.060776986 -0.018650845 0.009456003 0.05348088 0.052853584 -0.017944602 -0.012821083 0.04732754
-0.050738275 -0.011256298 0.0001064175 -0.05748267 -0.030636365 -0.070710726 -0.023326341 -0.0633253
0.035381444 -0.015679792 -0.0070939646 0.042061463 -0.04961213 -0.00016671249 -0.014273419 -0.020798275
0.050898526 0.03837317 -0.06105279 -0.021502705 -0.021226993 -0.009833795 -0.005515215 -0.0064565567
-0.01594315 0.008815225 0.030541977 -0.020707779 -0.0048621395 0.041287493 0.047885858 -0.0046133148
-0.059133157 -0.036377307 -0.049896877 0.05302384 -0.0521151 -0.04922751 0.034645047 0.054533128

temporal_blocks.1.conv1.bias f4 [64]
00000000: 3fe3 183d d6f7 1e3d 452a 753d 3137 073c
00000010: 4b05 5c3d 24c3 5a3d 6353 d73c 3571 ff3c
00000020: 6b3a 883c 8f10 993c 42c7 573c 9e35 63bd
00000030: 2b8a 843d e0de 0dbd c12c 953d f1da c13b
00000040: e1e8 9d3d 03e3 4e3a c003 453d e477 7abc
00000050: 9ab3 67bc 0c97 563d ed64 c0b9 e754 283a
00000060: 70b3 76bd 5484 7d3d ea0b a03c 59c3 2d3d
00000070: b7bc 8fbd b301 6cbd 680b 413d 9336 9a3c
00000080: 6d4c 1ebd bdb3 29bc a985 333c 5f25 febb
00000090: 3ef6 813c 2f43 2ebc 70eb 643c 0515 973d
000000a0: 4c84 903d f430 20bd 3fdd 1f3a 4047 883c
000000b0: 5c96 54bd 842a cfbc 4ad7 29bd 9582 66bd
000000c0: ecd7 5b3d 40a3 5a3d fce3 c13c efbe a83c
000000d0: f969 55bd efe0 2c3c a681 4ebd 8d79 233d
000000e0: 4972 5c3b 68cf 00bb 3fc8 71bc bb4a 9339
000000f0: ac39 07bd 2677 be3c 8f2c 0f3b 1e91 5d3c
0.037326094 0.038810574 0.059854764 0.008252905 0.053715985 0.053408757 0.02628488 0.031181911
0.016629418 0.018684654 0.013170065 -0.055471055 0.06471666 -0.03463638 0.07283927 0.0059159924
0.07710434 0.0007892104 0.04809928 -0.015287373 -0.014141941 0.052390143 -0.0003669629 0.0006421343
-0.06022972 0.061893776 0.019536931 0.042422626 -0.070184164 -0.057618808 0.04713002 0.018824851
-0.038647104 -0.010357794 0.01095716 -0.00775592 0.015864488 -0.010636135 0.013972148 0.07377056
0.070564836 -0.039109185 0.0006098337 0.016635537 -0.051901206 -0.025288828 -0.04146508 -0.056276876
0.053672716 0.053378344 0.023668282 0.020598857 -0.052103017 0.010551675 -0.05041661 0.03991084
0.0033637455 -0.0019654874 -0.014757215 0.00028093703 -0.033013985 0.023250174 0.0021846627 0.013523368

temporal_blocks.1.conv2.weight f4 [64, 64, 3]
00000000: 4403 ae3c 040a 023c 5e20 87bb 8a18 22bd
00000010: 92e5 253d bf23 5abc a437 5f3d 5a25 473d
00000020: 8178 7fbd 2319 56bd aa0a 4a3d 5c33 04bc
00000030: cea7 0d3d 3478 cfbc 6831 9f3c 8968 603d
00000040: 3aeb 09bc 5bf6 a73c 1784 a93d b6ec 983b
00000050: a5a3 0abd bf95 5abd d51a cb3c 0db1 ae3c
00000060: 6bff 9ebc c3a6 473c 141c b73d 9b79 19bb
00000070: 96e4 283d 8aa9 893a bad3 1e3d 3ed5 00bd
00000080: f5a3 c9bc 66e3 a3bc 6bf8 123d 7030 c73c
00000090: ac2d c7bc 2809 b33d 3038 21bd 711b 263d
000000a0: 5ec1 003d d2e2 bd3c bde7 0ebd 9bce 58bc
000000b0: 9127 8fbd 42d7 523d 5130 c7bc 030c 213d
000000c0: e171 cb3c 272f 85bd 4d35 bc3c 7df1 d93c
000000d0: a272 7e3c 8b91 19bd 1793 41bd 89c6 ffbc
000000e0: 1a32 e6bc 79fb babc cfba ee3b 6128 ad3b
000000f0: 8f5b babc aaf3 9bbd 61ad a83c ddad 82bc
00000100: 5381 463c bb46 d43c 03a6 393c aa89 61bb
00000110: ae97 02bd 9cef 823d a5d1 4fbd 812d 67bd
00000120: e956 ef3c 7f7c 2dbd 7bf8 4e3d a491 d93c
00000130: 2890 c4bc 414c bfbc 0cde e33c 0f26 863c
00000140: b964 233d 4376 f13b 5cf8 243d e88d 0f3e
00000150: 8656 afbb 868f 0fbd 2e55 b9bd 71b9 f5bc
00000160: 7e09 ae3c 4861 8f3d 50b5 f7bc 0be3 3d3d
00000170: 7956 393d 3260 60bc ba09 bebc b270 d83d
00000180: 570b 0a3d 834a 13bd 2a85 bc3d b23d da3c
00000190: f2c2 883d 6a5c be3b 5814 093c c5f9 7d3d
000001a0: 684e a23d fd5c 683d 1d1e 603c 5b99 cc3c
000001b0: 311b 83bd f3fb 70bc 6af9 4a3d b11b 3bbd
000001c0: ba02 0dbd 3460 3cbc 6dd2 92bd e4f8 08bc
000001d0: e94a 653d be7d 573d 03fb d23c c99f f73d
000001e0: 160c 9b3d 6eba 2e3c a4ae 193d de6e d1bc
000001f0: 8153 f3ba 1dde 8ebd 3543 c03c 9592 173d
00000200: 84ba 1c3d 8e62 0d3d db53 bbbb f0f0 ec3b
00000210: 1b01 aebc 34a3 533d eb27 b8bc e188 943c
00000220: 6230 a1bd d128 363c 1030 0abc 4cd6 e7bc
00000230: ed56 993d 9e4c 64bd a405 49bd e6f1 723c
00000240: 1367 5ebc 1ca1 dbbd a7a7 20bd df8a 953d
00000250: 1e58 943b 0351 a5bb c203 39bd 8c44 0b3d
00000260: 1f98 903c a883 963d e5eb 8dbc e20e d0bc
00000270: d991 8ebb e37a 503d 7a69 083d 3f02 8c3d
00000280: 7d7e 3c3d e6c0 95bd 9608 79bd 901a f2bc
00000290: 4cd7 9dbc 6502 0abd 8b51 993b d03d d63c
000002a0: a746 51bd 210d 21bd 5c33 7ebc ab2d 173c
000002b0: dd3e a7bd 1b46 b7bd ebc8 17bd 9f86 70bd
000002c0: fc2a 83bd a47a 05bc a737 203d 6832 24bd
000002d0: a4e1 26bc a769 debb f67e 19bd b450 2e3c
000002e0: ed76 643d 6d37 95bc b4bc 3c3d 2874 223c
000002f0: 42d6 8ebc d8e2 903c ea74 55bd c515 b7bd
00000300: 801a ee3c ea52 043d 4204 a43a c57a 55bd
00000310: 08b0 4c3d 949e 83bc a626 363d 4832 9bbd
00000320: 7149 1bbd b287 b83b f62a 723d d598 eebb
00000330: 89ef 6b3d b10c 5ebb 8f25 9f3d 856b 45bd
00000340: 332a c03b ad76 403c 2e6f 303c 0312 aebd
00000350: d9ee 2ebd 00b2 b83d 618b 60ba e739 b63d
00000360: c65d a1bd dc75 1ebd 9348 5b3d 6eb4 9c3c
00000370: 990e 9c3d b753 abbc 6a11 aa3c ac98 9dbd
00000380: 0a63 0dbc 5da2 9fbd 2cf8 f93c aa03 96bd
00000390: 73f6 453d 202e 6c3d 944c 5dbd df25 30bd
000003a0: cd7f 8abc 1075 48bd 9d02 763d dc1d 363d
000003b0: 83f5 7fbd 4cf1 b5bb ac81 45bd adf3 97bc
000003c0: 1fc8 323d 3878 7f3d 58a8 69bb b342 223d
000003d0: c64f 443d 05a5 513d 2857 883c de54 b03c
000003e0: 99e3 a3bd 4d32 89bd 23df 3dbd c27b 47ba
000003f0: af0e 97bc 6f33 7bbc f3e5 ce3d d8f8 fe3a
0.021241792 0.007936958 -0.0041237315 -0.039574184 0.04050214 -0.013314187 0.054496422 0.048619606
-0.06237078 -0.052270066 0.049326576 -0.008068886 0.03458386 -0.025325872 0.019432738 0.054787192
-0.008417899 0.020503214 0.08277147 0.00466689 -0.03384747 -0.053365465 0.024793068 0.021324659
-0.019408902 0.012185755 0.08940902 -0.002341843 0.04123362 0.0010502797 0.038776137 -0.031453364
-0.024614314 -0.020005893 0.03588144 0.024315089 -0.02431377 0.08741981 -0.039360225 0.040553514
0.03143441 0.023179445 -0.03488897 -0.013232852 -0.069899686 0.051474817 -0.024315031 0.039318096
0.024834575 -0.06503134 0.022974635 0.026604408 0.01553026 -0.037492316 -0.047259416 -0.031222599
-0.028100062 -0.02282499 0.007285453 0.0052843546 -0.022748737 -0.076148346 0.020590486 -0.015952045
0.012115794 0.025912633 0.011331084 -0.003441433 -0.031882934 0.06393358 -0.050737042 -0.05643988
0.029216247 -0.042355057 0.05052994 0.026558705 -0.02399452 -0.02335179 0.027815841 0.01637557
0.03989098 0.007368834 0.040275916 0.14018977 -0.0053508906 -0.035048984 -0.0904945 -0.029995652
0.02124476 0.07000977 -0.030237824 0.046359103 0.045248482 -0.01369481 -0.023197997 0.1056837
0.03370222 -0.03595973 0.092050865 0.026640747 0.06677808 0.0058093565 0.008366667 0.062005777
0.07925111 0.056729306 0.013679055 0.02497547 -0.06401671 -0.014708507 0.049554266 -0.045680705
-0.03442643 -0.011497546 -0.07169042 -0.008360121 0.055979643 0.05261015 0.025754457 0.120910235
0.075706646 0.0106645655 0.037520066 -0.02556556 -0.0018564315 -0.069759585 0.023469547 0.037005026
0.038263813 0.034517817 -0.0057167835 0.0072308704 -0.021240762 0.051669315 -0.022479972 0.018131675
-0.078705564 0.01111813 -0.008434311 -0.028300427 0.07487283 -0.05573713 -0.049077645 0.014828181
-0.0135743795 -0.107240885 -0.039222386 0.07301878 0.004527106 -0.0050450577 -0.0451696 0.03400092
0.017650662 0.0734933 -0.017324397 -0.025397722 -0.0043508825 0.050898444 0.033303715 0.06836366
0.046019066 -0.07312183 -0.060799204 -0.029553682 -0.0192677 -0.03369369 0.00467891 0.026152521
-0.05109277 -0.03931916 -0.015515175 0.009227197 -0.08166287 -0.089489184 -0.037056845 -0.058722135
-0.06404683 -0.008146916 0.039115574 -0.040087134 -0.010185633 -0.006787497 -0.037474595 0.010639358
0.05577748 -0.018214906 0.0460784 0.009915389 -0.01743615 0.017686293 -0.05211345 -0.08939699
0.02906537 0.032305636 0.0012513476 -0.052119035 0.049972564 -0.016066827 0.04447045 -0.0757795
-0.037911836 0.0056314105 0.059123002 -0.0072814026 0.057601485 -0.0033882076 0.077708356 -0.04819824
0.0058644055 0.0117470445 0.010768695 -0.08499529 -0.04270825 0.09018326 -0.0008565691 0.08897763
-0.07879214 -0.03868662 0.05353601 0.019129004 0.07619972 -0.020913942 0.020760257 -0.076951355
-0.00862957 -0.0779464 0.030513845 -0.073249176 0.048330735 0.057661176 -0.05402811 -0.043004867
-0.016906643 -0.048939764 0.060061086 0.04446207 -0.062489998 -0.0055524465 -0.048219368 -0.01854881
0.04364788 0.06237051 -0.003565332 0.03961439 0.04792764 0.051182766 0.016643122 0.021524843
-0.08002395 -0.06699047 -0.046355378 -0.0007609689 -0.018439619 -0.015332087 0.10102453 0.0019452823

temporal_blocks.1.conv2.bias f4 [64]
00000000: 0242 20bd 6d31 93bd 8ddd 193c 0f29 57bd
00000010: 4f44 6f3c d158 96bd 480b f13c d3d2 5e3a
00000020: 8fbb 123d 6024 143d 9aba f13b a99f 053d
00000030: 8d5c 463d a9e0 e8bc 1b77 6c3b c549 593d
00000040: d133 7d3c f414 fdbc 4b96 913c 55b3 b93d
00000050: 2d22 6c3c 98dd 313c 947a 0cbc 2706 483d
00000060: ffef 2cbd 3701 983b c0a8 013d 4edb a3bd
00000070: 9414 5cbc 8133 5d3d 7bbd 1b3d 14c8 69bc
00000080: 8cd5 a0bc b54c debc c3f4 3fbd ae1d 5cbd
00000090: 84c3 afbd 54ee 1d3d 9c89 27bd d8f2 033d
000000a0: ce73 26bc 7226 dfbb 0435 2e3d f1b4 853c
000000b0: 7df8 5eba 3d44 3a3d b2b5 36ba 3f57 3c3d
000000c0: 035d a03c 77cd 91bd b2c6 56bd b8de 91bd
000000d0: 21a4 973d 0e61 603d bc11 833d bf08 79bb
000000e0: 2121 173d 4ae6 3d3d 7197 d93c c352 55bd
000000f0: 1f01 253d 75d2 81bd 7729 133d d716 a1bc
-0.03912545 -0.071871616 0.009391201 -0.05252939 0.014603688 -0.07341159 0.029424325 0.0008500043
0.0358234 0.036167502 0.007376981 0.032622967 0.048428107 -0.028427439 0.0036081735 0.053048868
0.0154542485 -0.03089378 0.01777186 0.09067408 0.014412445 0.010856055 -0.008574147 0.048833992
-0.042221066 0.0046388167 0.031655073 -0.080008134 -0.013432641 0.054004196 0.0380225 -0.014268894
-0.019633077 -0.027136186 -0.046864282 -0.053739242 -0.085822135 0.038557366 -0.04090272 0.032214016
-0.010159446 -0.006810003 0.04253103 0.016321631 -0.00085056556 0.045475233 -0.0006969824 0.04598164
0.019575601 -0.071192674 -0.052435584 -0.07122558 0.07404352 0.05478006 0.06399867 -0.0037999598
0.03689683 0.0463622 0.02656147 -0.05208088 0.040284272 -0.063389696 0.035928216 -0.019664211

temporal_blocks.1.norm1.weight f4 [64]
00000000: 57af 813f c496 7b3f 6a6a 7a3f daad 803f
00000010: 55fc 813f 0b01 753f b967 813f 0561 823f
00000020: e26c 7e3f 625f 7f3f 3e29 793f 8f42 823f
00000030: 23a0 803f a17c 823f 5e18 773f e92c 823f
00000040: 47b1 833f d66d 7f3f ef0a 843f d8a9 7f3f
00000050: 22ae 7c3f 5d17 843f b2b8 823f 579a 7f3f
00000060: 7926 843f 54ec 7a3f b4f6 7f3f e0c2 7f3f
00000070: 2ef5 813f 5da3 803f b60d 823f 971b 863f
00000080: bbed 803f aae0 7e3f 65d4 813f 4944 7e3f
00000090: 2abb 7b3f 126a 823f 1049 7f3f 0aa1 853f
000000a0: ac13 813f d1d3 7a3f b409 813f 8f60 813f
000000b0: f6d0 813f 6fa1 813f 3620 7c3f 0ea8 7f3f
000000c0: 0806 813f 8ad9 7c3f 0948 803f 0b7c 823f
000000d0: ffbd 803f 8fb0 803f 140e 803f e2c3 7f3f
000000e0: b99c 7b3f 78a6 813f 9b93 803f 8704 813f
000000f0: d148 7e3f e595 7f3f 476d 773f 8d42 813f
1.0131634 0.98276925 0.97818625 1.0053055 1.0155131 0.95704716 1.0109779 1.0185858
0.9938489 0.9975492 0.97328556 1.0176562 1.004887 1.0194284 0.96521556 1.0169955
1.0288476 0.9977697 1.0315837 0.99868536 0.98703206 1.031963 1.0212615 0.9984488
1.0324241 0.9801686 0.99985814 0.9990673 1.0152948 1.0049855 1.0160434 1.047717
1.007255 0.9956156 1.0142943 0.99322945 0.98332465 1.018862 0.9972086 1.043977
1.0084128 0.97979456 1.0081086 1.0107592 1.0141895 1.0127391 0.9848665 0.99865806
1.0079966 0.9876944 1.0021983 1.0194105 1.0057982 1.0053881 1.0004296 0.9990827
0.98286015 1.0128927 1.0045046 1.0079507 0.9932986 0.99838096 0.9665112 1.0098435

temporal_blocks.1.norm1.bias f4 [64]
00000000: 00ad 34bb 5ba3 47bc 6f28 b7bb 6a59 04bc
00000010: 8844 26bc beab e9bc 98d0 a7bb 0f72 b8bb
00000020: a1f1 92bc d4c9 4eba 7bcd 4fbc a85b 9dbc
00000030: b8e3 02bc e1c9 53bc 95c9 3fbc 8e49 e5bb
00000040: 3f9f 9cb9 3539 7cbc 2dec 9ebb 98b8 84bb
00000050: 9df1 67bc 72ac a0bc ceed 43bd ddd6 64bc
00000060: 387c c8bc f603 97bc d547 113b 26f0 c8bc
00000070: e6cb 19bc e1e6 4ebc bf12 d73a f2b0 abbc
00000080: b6c9 52bb aa1d 2bbc 394a 86bb 08c2 87bc
00000090: d4b2 97bc 96a4 c7ba 9c28 9cbc a703 ddbb
000000a0: 44ba 9cbc 7d6f 6fbd 858f 8b3c 6e44 3abd
000000b0: e595 b5bc 792c f8bb 7411 bebc 8d83 c7bb
000000c0: 58d5 8539 f640 aebc 2f89 11bc 13a5 2abb
000000d0: 949b ebba e676 b339 2ffd 14bb 013e 94bc
000000e0: a924 0ebd 90e8 f5bb f276 abba 5dad edbb
000000f0: 7c51 a0bc ef47 61bc 5412 56bd 7058 03bb
-0.0027568936 -0.012184943 -0.005589537 -0.008077959 -0.010148175 -0.028524276 -0.005121302 -0.005628831
-0.017937483 -0.0007888351 -0.012683268 -0.019208744 -0.007988863 -0.01292655 -0.011705776 -0.006997294
-0.00029873286 -0.015394499 -0.0048499317 -0.0040503256 -0.014156726 -0.019613478 -0.04783421 -0.013967243
-0.024473295 -0.018434506 0.002216806 -0.024528574 -0.009386992 -0.012628288 0.0016408785 -0.020958398
-0.0032163686 -0.010444084 -0.0040982035 -0.016572013 -0.01851789 -0.0015231546 -0.019062333 -0.00674482
-0.019131787 -0.058455933 0.017036209 -0.045475416 -0.022166202 -0.007573661 -0.023201682 -0.00608868
0.0002552669 -0.02127121 -0.008882805 -0.0026038333 -0.0017975443 0.00034230127 -0.0022733917 -0.018095972
-0.03470293 -0.0075045303 -0.0013081713 -0.0072533325 -0.019570105 -0.01375006 -0.052263573 -0.0020041727

temporal_blocks.1.norm2.weight f4 [64]
00000000: 3e0c 803f d86f 813f f457 813f ffc1 7e3f
00000010: 0eeb 803f 2790 7c3f 3729 803f 99a3 7b3f
00000020: 6b60 7e3f 10ba 803f b2ad 7a3f 1e57 833f
00000030: eeb4 803f 7e09 833f 630a 813f c476 7b3f
00000040: e4b7 7f3f 207d 833f 6e26 7b3f d9a0 7f3f
00000050: acd9 803f ddf5 7d3f addc 813f d8e3 7d3f
00000060: ac4a 823f b58f 833f 1c56 833f ddc3 7f3f
00000070: 00c9 783f 05dd 733f 7444 793f d168 823f
00000080: 9e00 803f cebc 7b3f e8df 803f 5eb2 7c3f
00000090: c604 803f e8f0 7f3f 8e56 7a3f 3414 823f
000000a0: aed1 7b3f 45b2 823f 51db 803f 21f2 823f
000000b0: ac96 7b3f b57a 843f 7e60 803f 18ab 803f
000000c0: c9e9 803f f681 813f c641 7f3f 088b 803f
000000d0: 7f0c 793f 2f4c 813f 8209 823f 23a0 7d3f
000000e0: f3ad 7d3f e10d 7f3f 0c0a 7e3f f86d 823f
000000f0: a268 7c3f b71c 813f 330e 7f3f 92ee 7e3f
1.0003736 1.0112257 1.0104966 0.99514765 1.0071733 0.9865746 1.0012578 0.98296505
0.9936587 1.0056782 0.9792129 1.0260961 1.0055215 1.0237272 1.0081295 0.98228097
0.9988997 1.027256 0.98105514 0.9985481 1.0066428 0.9920328 1.014547 0.99175787
1.0179038 1.0278231 1.0260653 0.9990824 0.971817 0.95259124 0.97370076 1.0188237
1.0000188 0.9833497 1.0068331 0.98709667 1.0001457 0.9997697 0.9778832 1.0162416
0.9836682 1.0210654 1.006693 1.0230142 0.9827678 1.0349947 1.0029447 1.0052214
1.0071346 1.0117786 0.9970974 1.0042429 0.9728469 1.0101374 1.0159152 0.99072474
0.9909355 0.9963055 0.9923408 1.018981 0.98597157 1.0086888 0.9963104 0.9958278

temporal_blocks.1.norm2.bias f4 [64]
00000000: d539 97bb 016c 46bb b8c5 ae3c fb0d 863b
00000010: dc9f 72bc ca4b 363b 3410 0739 b6a5 fa3c
00000020: c429 5e3b eaeb e5bc f2c3 3e39 64ed 6d3c
00000030: d3b7 043b 502e 993c dd7a 22ba 65e4 5fbc
00000040: e76e d1bc de78 bc3b b01c 0b3d 0116 b43c
00000050: 2813 82bc ffc4 553b 2d52 933b 4641 6abc
00000060: b453 4fbb 59d0 a4bb 4c0e 0cbb c81f 67bc
00000070: f9c2 09bc 04f6 edbc 37f7 b13c aba3 ddba
00000080: 6161 28bd 4a83 a6bb b492 dd38 c480 cebb
00000090: 7114 34bd a520 2abc 33cc b5bb 0e12 f13b
000000a0: df86 92b8 8401 763c f6b8 9d3c 8d48 0aba
000000b0: b067 beba bde0 31bd 7978 0f3c 9ceb 6cbc
000000c0: 74f7 df3b 2bf4 2cbd 9f83 1dbc 7620 dcba
000000d0: 5d98 3d3c fb0f f93a eda5 153b 5eaf ae3c
000000e0: a778 a9ba 30f9 0cbb b8f1 17bc 11b7 13bc
000000f0: cbbf e7bb 5005 f5bb 4660 45bb 705a 22bc
-0.0046150484 -0.0030276778 0.021334514 0.004091022 -0.014808621 0.002781617 0.0001288064 0.030596595
0.0033899406 -0.028066594 0.00018192807 0.01452193 0.002025117 0.018698841 -0.00061981176 -0.013665293
-0.025565578 0.005751713 0.033962905 0.021983149 -0.015878275 0.003261864 0.00449588 -0.014297789
-0.0031635584 -0.00502972 -0.0021370826 -0.014106698 -0.0084083015 -0.029047973 0.021724327 -0.0016909739
-0.041108493 -0.005081569 0.00010565427 -0.006301971 -0.043964807 -0.01038376 -0.005548024 0.0073568886
-6.986944e-05 0.01501501 0.019253235 -0.0005275093 -0.0014526751 -0.043427218 0.00875675 -0.0144604705
0.0068349186 -0.042225044 -0.0096139 -0.0016794342 0.011571971 0.0019001955 0.0022834495 0.021323856
-0.0012929634 -0.0021510832 -0.009273939 -0.009015814 -0.007072424 -0.00747744 -0.0030117198 -0.009909257
